model/Clstm_example.pth (torch, 325231 bytes, 23 tensors)

cnn.layer_1.conv1.weight f4 [8, 1, 3, 3]
000000 9a 86 69 be 5a f8 3a bd 7e 64 6e bd fb 0d 89 be
       -0.22805253 -0.045647003 -0.058201306 -0.2676848
000010 a9 f1 29 3e 32 ef 1d 3e a5 19 44 3e fd b6 f3 bc
       0.16596092 0.15423277 0.19150408 -0.029750342
000020 cc 37 c5 3e aa d4 76 3e d5 81 bc be 30 b5 66 be
       0.38519132 0.24104562 -0.36817804 -0.22530055
000030 81 f7 62 be f8 7a ba 3d 07 db 53 be fa 36 9b be
       -0.22164728 0.09105486 -0.20689021 -0.3031538
000040 7c cc 48 3e 4a 26 b7 3d 8c cc 13 3c 11 eb 73 3d
       0.19609255 0.0894285 0.009020936 0.05955035
000050 89 b6 7b 3e 38 fb 04 3e f4 16 22 3d 50 c5 44 be
       0.2458135 0.12986457 0.03957267 -0.19215894
000060 da c3 23 be 6c dc 88 3e 3b 7f 65 3e 46 d0 77 3b
       -0.1599268 0.2673067 0.22411816 0.003781335
000070 62 8c f2 3d 16 54 b9 be 49 39 0a 3e 13 e7 d1 3d
       0.11843182 -0.36196965 0.13498415 0.10249152
000080 93 31 b2 3e 3e 29 83 be be 41 a3 be 74 b3 8b 3e
       0.34803447 -0.25617403 -0.31886095 0.2728535
000090 c6 ab 30 bc 4a bb 33 be 01 7f 3b 3d 96 58 c2 3c
       -0.0107831415 -0.17551914 0.045775417 0.023723882
0000a0 68 37 7e be 15 40 29 3e 2a 15 fe bc 6e 9c d5 3d
       -0.24825823 0.16528352 -0.031015951 0.10430227
0000b0 fb 3e 84 3e 8e a1 b3 3e c1 bf 93 3e 03 5c 33 be
       0.258293 0.35084194 0.28857234 -0.17515568
0000c0 87 64 60 be a5 20 77 be ba c8 75 3e 2d f2 8f bc
       -0.21913348 -0.24133547 0.24002352 -0.017571533
0000d0 f3 98 39 be 39 c8 5e bd 7e 7e a0 3e c4 b9 ea bd
       -0.18124752 -0.054390166 0.31346506 -0.11461213
0000e0 56 f6 b7 3d e9 ea 22 3e be d2 17 3e 52 cd 9e 3e
       0.08982532 0.15909924 0.14826486 0.31016022
0000f0 03 c7 92 3e fe 44 79 be 1d 60 03 3e 0d 1f d4 bd
       0.2866746 -0.24342725 0.12829633 -0.10357485
000100 14 f9 b0 bd 10 27 07 bd df db 0a be 5b 32 65 be
       -0.08641258 -0.032996237 -0.13560437 -0.2238249
000110 43 ec 3c 3e de 7b af be 2b 40 23 3e 99 76 27 3e
       0.18449502 -0.3427419 0.15942447 0.16353835

cnn.layer_1.conv2.weight f4 [8, 8, 3, 3]
000000 8d fb 6c 3d 07 d0 df bc ae 0d f2 3d 02 6d bc 3d
       0.057857085 -0.027320875 0.118190154 0.09200479
000010 10 5e d8 3b 34 13 a4 3c b2 3d 6c 3e a5 6f 54 bc
       0.00660301 0.020028688 0.2307041 -0.012966071
000020 92 bb c4 bc 7d 62 14 3e 97 9c 1a 3d 37 2d ec bd
       -0.024015222 0.14490695 0.037746992 -0.115320615
000030 fb aa 44 3e 2f 50 2e 3e ec 96 39 be 4c fd b9 bc
       0.19205849 0.17022775 -0.18123978 -0.02270379
000040 3e d5 91 bb 5a 68 16 be 98 00 d0 3d 19 df d8 3d
       -0.0044504693 -0.14688244 0.10156363 0.105894275
000050 75 1e b8 3d 6f b4 33 bd 06 9c 84 bd 67 c0 37 3d
       0.08990184 -0.043873247 -0.064750716 0.044861224
000060 b7 56 a5 bd 72 3c c1 3d e4 e3 7e bc 9c 49 b1 3c
       -0.0807318 0.09435357 -0.015557263 0.021641545
000070 69 fd c4 3d 0a ab 02 bc a5 8d 2b 3e 3b d5 0f 3e
       0.09618647 -0.007975349 0.16753252 0.14046185
000080 b4 69 95 bd 73 59 2b 3d d6 76 45 bd 9c 92 67 bd
       -0.07295552 0.041833352 -0.048209034 -0.056536302
000090 76 7e 0e 3c ce 3b 3a 3c 23 a0 1d 3d b6 02 61 3d
       0.008697143 0.011366798 0.038482796 0.054934226
0000a0 50 b3 7e bd fa 12 d2 3d 9b 90 7e bc 5a 50 04 bd
       -0.062182724 0.10257526 -0.015537406 -0.03230319
0000b0 73 dd 22 3d 93 b6 27 be 01 ce 2c be 94 d4 e9 bd
       0.03976197 -0.1637824 -0.16875459 -0.11417499
0000c0 6a b5 bf bd 0c 3d 3e be 0d 53 7a be 3a 12 64 bd
       -0.09360774 -0.18577975 -0.24445744 -0.055681445
0000d0 d1 60 31 be ea 6a 52 3c e1 95 e6 bd b6 d9 1d 3d
       -0.17322089 0.012842873 -0.11259056 0.038537703
0000e0 48 f5 1d 3d f0 bb f2 bc b9 d8 6e bd 6f 9e d8 3d
       0.038563997 -0.029630631 -0.05831215 0.10577094
0000f0 de f0 a7 3c cc 56 4f bd f0 b9 fc ba 4c 1b 79 3d
       0.020500597 -0.050619885 -0.0019281488 0.060817048
000100 e2 bc 20 3e 04 33 d7 3d 9b b0 47 3d d4 4a d1 3d
       0.15697053 0.10507777 0.04875241 0.102193505
000110 fc 17 32 3d de 22 12 3e d6 e3 9b bd 54 4e 17 3e
       0.043479905 0.14271113 -0.07611816 0.14775974
000120 34 92 39 3e 87 53 00 be 20 dc d9 bc d9 18 40 3e
       0.18122178 -0.12531863 -0.026594222 0.18759479
000130 a0 99 9f bd c5 04 ce bd 47 e1 76 3e 19 51 18 bd
       -0.077929735 -0.100595035 0.24109374 -0.037186716
000140 79 7a 52 be 3e 75 f2 bc b2 7a 31 3e 46 d9 e1 bd
       -0.20554532 -0.029596921 0.17331961 -0.1102777
000150 98 e8 0f 3c fe 5d 7a bc 1f f9 bb bd b3 f1 31 bd
       0.008783482 -0.015281199 -0.091783755 -0.043443393
000160 10 71 cb 3d d3 2a fe 3d 9a 09 af 3d d7 ce 81 bd
       0.09933674 0.12410512 0.08546753 -0.0633828
000170 81 4f 04 be 9d 2a 4b bd 8c 62 bd 3d fb 3c d0 bd
       -0.12920953 -0.049601186 0.09247312 -0.10167881
000180 91 bd e2 3d 49 4e e4 bc 3c 21 b7 bd 27 44 c1 bb
       0.11071313 -0.02786936 -0.08941886 -0.005898017
000190 78 80 e1 3c 02 e9 2d be 94 c0 12 3e 86 31 a4 bd
       0.027527079 -0.16983417 0.14331275 -0.08017258
0001a0 83 2f 50 be 12 a6 0f bc 5f ea ef 3d 73 5e 9f 3c
       -0.20330624 -0.008767622 0.117146246 0.019454217
0001b0 0d 0d 0b 3d 5f 73 13 bd ae 3c b1 bd 43 33 c7 3d
       0.033947993 -0.0359987 -0.08654152 0.09726574
0001c0 d5 5a 9a 3d 80 65 39 bd 5a 96 80 3d c1 24 8d 3d
       0.07536856 -0.045262814 0.06278677 0.06891776
0001d0 71 cd 59 bd df 0c b0 bc 9b 0f 98 be 6f 85 c4 bd
       -0.05317444 -0.021490512 -0.29699406 -0.09595763
0001e0 6c 8a ad bd 9c 72 49 be e0 43 5c 3d b0 eb 89 bd
       -0.084736675 -0.19672626 0.05377567 -0.06734407
0001f0 e8 ca b9 bc d1 78 30 be 3a cd c5 bc 8f 59 af 3c
       -0.022679761 -0.17233588 -0.024145711 0.02140501
000200 d4 fd 55 3d d9 ea fd 3d a1 73 b9 3b 5b ad 1a 3d
       0.052244022 0.12398309 0.005659536 0.03776298
000210 10 af f2 3d 93 7b bc 3d dd 09 d6 3b 6b 32 b0 3d
       0.11849797 0.092032574 0.0065319375 0.086033665
000220 7f 63 ae bd 14 ba 8f bd c0 2d 48 3d 0c bb cd bc
       -0.08515071 -0.070179135 0.048871756 -0.025113605
000230 05 81 02 be 7e 5c 16 3b 96 59 0f be 07 25 98 3d
       -0.1274453 0.0022943313 -0.13999018 0.074289374
000240 93 c1 aa bd e7 e7 87 3d 29 6f d1 bd 28 e5 be bd
       -0.083377026 0.06636029 -0.1022628 -0.09321052
000250 5a e8 6f bd 89 29 07 3c 69 2e 21 be b3 31 23 be
       -0.058571197 0.008249649 -0.1574036 -0.15936927
000260 f5 74 ec bb 07 23 ff bd e0 43 1e bd 51 be 83 3d
       -0.007216091 -0.12457853 -0.03863895 0.06432784
000270 eb 9f 41 bd 6e 73 19 bd 19 e1 01 be ff 3a 21 be
       -0.04727165 -0.037463598 -0.12683524 -0.15745161
000280 ca f4 11 bd 18 87 d7 bd c4 51 7e bb 62 69 43 3d
       -0.03563384 -0.10523814 -0.003880606 0.047707923
000290 b9 a1 82 bd 41 82 d3 3d 89 eb 94 3a 96 36 bf bd
       -0.063785024 0.10327578 0.0011361699 -0.09336583
0002a0 87 7e 71 bd 7f a2 01 3e dc b1 5b 3d 5e e2 7f 3d
       -0.058958557 0.12659644 0.053636417 0.06247174
0002b0 28 0b 2d 3e 61 bb 34 be 78 3b f9 bd ee 06 42 bd
       0.16898787 -0.17649604 -0.12169546 -0.04736989
0002c0 4b 75 b5 be d2 ed f9 bd e1 b1 05 3e 84 10 7c be
       -0.3544105 -0.12203564 0.13056137 -0.24615675
0002d0 7c 7c 2f 3e 08 a8 0e 3d a6 5a 82 b9 bd c8 dd 3d
       0.17137331 0.034828216 -0.0002486307 0.108293034
0002e0 f8 4e 9a 3d fa a7 8b bd ad fa 39 be ad 18 a0 3b
       0.07534593 -0.06819148 -0.18162031 0.004885754
0002f0 ea a0 7b be 7e bc be bd 19 f3 23 3e 16 5e 8f 3d
       -0.24573103 -0.09313296 0.16010703 0.07000367
000300 a6 3c 30 3e 7c 44 75 3e 18 0e 6a bd 77 0c ca bb
       0.17210636 0.23951906 -0.057142347 -0.0061660367
000310 6a d2 93 3e 20 dc 66 be 50 9d 7c bd 2d e4 68 3d
       0.2887147 -0.22544909 -0.061673462 0.05685823
000320 ed 2f 7a bd 4f 7f 0b 3d 15 c2 62 3c 6a fc 01 be
       -0.06108086 0.034056958 0.013840218 -0.12693945
000330 c9 fc 21 3d 96 c8 e8 bd c7 98 21 bd 5b 5e 2a be
       0.039547715 -0.11366384 -0.03945234 -0.16637556
000340 f3 19 83 bd b9 55 9a bd ce a8 02 be 7f 4f 63 bd
       -0.06401434 -0.075358815 -0.12759706 -0.055495735
000350 a7 a0 88 3d 56 ca bb 3c d4 f7 36 3d 89 46 6f 3d
       0.06671267 0.02292363 0.04466994 0.058416877
000360 43 6f be bd 7e 2d 88 3d 4d 90 ec 3d 28 6e 46 bd
       -0.09298565 0.06649302 0.11550961 -0.048444897
000370 38 e5 17 3d a2 30 8f 3d a4 9b b1 bd 50 f4 2e 3e
       0.037083834 0.06991698 -0.08672264 0.17085385
000380 20 06 f7 bc da df 90 bc e1 90 73 3d 93 71 bb 3c
       -0.030154288 -0.017684866 0.05946434 0.022881305
000390 86 e5 08 be af c1 9c bc 01 b3 8d bd b4 51 22 be
       -0.13368806 -0.019135324 -0.06918908 -0.1585148
0003a0 e5 bc 97 3d e5 48 12 3c 9b 32 f1 3d e7 fc 95 bc
       0.07409076 0.008928512 0.1177723 -0.01830907
0003b0 39 77 e5 3d 61 9f da 3c 52 4b d5 3d 80 7e 73 bd
       0.112043805 0.026687326 0.10414757 -0.05944681
0003c0 6f cb da 3d c6 d4 75 bd b0 3a da 3d ff c4 07 be
       0.10683333 -0.06001737 0.10655725 -0.13258742
0003d0 2a 7e f4 3d 76 18 72 bd 34 ee fa bd 5b ca b5 bd
       0.119381264 -0.05910536 -0.12252465 -0.08876487
0003e0 03 42 52 bd 55 b9 c5 3b 49 ae 0b 3c 63 4d ce bd
       -0.051332485 0.006034056 0.00852544 -0.10073354
0003f0 79 35 7b bc 3f 65 90 bd 7b 7d 1a bd de 0b 74 3d
       -0.015332573 -0.07050561 -0.037717324 0.05958163

cnn.layer_1.conv3.weight f4 [8, 1, 1, 1]
000000 12 b4 03 3f f8 b6 17 be 32 df 39 bf 22 af 30 be
       0.5144664 -0.14815891 -0.72606194 -0.17254308
000010 e8 16 61 3f 92 d2 24 be 07 db 2b bf 32 36 07 3f
       0.8792558 -0.16095951 -0.67131084 0.5281707

cnn.layer_3.conv1.weight f4 [16, 8, 3, 3]
000000 50 53 42 be 2c 8b 65 bd 20 46 2f 3d 61 e0 69 bd
       -0.18977094 -0.056040928 0.042791486 -0.05709875
000010 4b 59 d6 3d 6e a9 e3 3b 85 32 23 3d 83 84 98 bd
       0.1046625 0.006947688 0.0398431 -0.074471496
000020 77 1f 54 bd b3 b2 ee bd d3 00 6c be 1b 1a 45 be
       -0.05178782 -0.11655178 -0.2304719 -0.1924824
000030 ea 4e a5 bd c0 46 e4 bd a1 9d 20 be b9 5f 24 be
       -0.08071692 -0.11146307 -0.1568513 -0.1605214
000040 23 6b 0b be a2 0a 46 bd de 07 d1 3d 60 e9 7a bd
       -0.13615088 -0.048349984 0.10206579 -0.06125772
000050 8c 48 27 be 51 61 fd 3d ca 55 f4 ba 15 f7 20 be
       -0.16336268 0.12372077 -0.001864129 -0.15719254
000060 44 23 72 3c 0e 3b 0e be 25 81 68 3c 75 ac 91 bb
       0.014778916 -0.13889715 0.014190947 -0.0044456073
000070 fb fb be 3c 96 d5 ae 3d 9a ab 6c bd 33 9d 3c bd
       0.023313513 0.08536832 -0.05778084 -0.046048354
000080 41 17 f3 3d 44 92 77 bd 3e ba 96 ba 9c f3 a0 bb
       0.1186967 -0.060442224 -0.0011499596 -0.004911853
000090 48 ea 05 be 97 39 9a bd b5 94 8b bd e6 c1 05 3d
       -0.13077652 -0.07530516 -0.06815473 0.03265562
0000a0 88 ed e7 3c 1c 22 d4 bb 2a 49 89 bd 5b af 5c bd
       0.028311506 -0.0064737927 -0.06703408 -0.05387817
0000b0 a0 67 7c 3d 73 c6 e2 bc 91 57 8a 3d b0 8e a4 bd
       0.061622262 -0.027682519 0.06754983 -0.08035028
0000c0 2c 6b 6c 3b 05 63 d4 bd 53 64 c4 bc 8e 70 17 3e
       0.0036074622 -0.10370449 -0.02397362 0.1478903
0000d0 e5 2d 12 be c3 8f b1 bd e1 c6 0d 3e ed 92 a0 3d
       -0.1427532 -0.086699985 0.13845398 0.07840524
0000e0 10 1c 74 bb fb 14 b5 3d 9f cf a9 3b 3e 86 00 be
       -0.0037248172 0.08841892 0.005182221 -0.1255121
0000f0 bb 9f a7 3d 00 3e c8 bd ea d0 38 3d f7 1f 1b bd
       0.08184763 -0.097774506 0.04512111 -0.03787228
000100 6a b3 0d bd 55 22 cd bc 68 6a bf bd 41 27 2c 3d
       -0.03459493 -0.025040785 -0.09346467 0.042029623
000110 9f 98 d0 3d f9 aa 5f bd c1 36 1b bc 16 57 06 3d
       0.1018536 -0.05460641 -0.009473504 0.032797895
000120 61 1b a1 bd 0c ad ca bd f6 46 0a be 5a f8 c0 bc
       -0.0786655 -0.09896287 -0.13503632 -0.023555923
000130 54 b7 a2 bc a6 47 a7 bd fd 13 26 3e 29 14 ad 3d
       -0.019862808 -0.08167963 0.16218562 0.08451111
000140 dd d6 31 3e da d6 45 3d ad 5a 93 3d 4e 1b c4 bd
       0.1736712 0.0483006 0.071950294 -0.095755205
000150 8c 2e e6 3d 43 1d b1 bd 7a fe 72 bd 84 4b 00 bd
       0.11239347 -0.08648159 -0.05932472 -0.031322017
000160 e4 cf 93 3d b0 65 d3 3d 6f 53 0a 3e 22 4c d4 3d
       0.07217386 0.1032213 0.1350839 0.10366084
000170 32 8b 96 3d 04 d3 17 3e d3 98 b6 bd 09 1d f8 bd
       0.07350768 0.1482659 -0.08915868 -0.12114913
000180 1d a9 7b 3d 54 a6 0b be e1 07 ef bd 3d 54 a1 bd
       0.061440576 -0.13637668 -0.11671425 -0.07877395
000190 05 82 a2 3d dc 21 9a 3d 8b ea ca 3d fc 11 1c 3d
       0.079349555 0.075259894 0.09908017 0.03810309
0001a0 07 b6 d0 3c ce 32 8b bd 62 49 52 3b d0 94 25 bd
       0.025477422 -0.067967996 0.0032087197 -0.04042512
0001b0 81 db 80 bc 44 ea e9 bd bd a7 b1 3d 68 86 40 bd
       -0.015729668 -0.11421636 0.08674572 -0.04700318
0001c0 f0 80 98 3d de 72 ee 3d a5 86 b6 3b 3d 61 1a 3e
       0.07446468 0.11643003 0.00557025 0.15076156
0001d0 32 7f c5 bc 9d f7 2d 3e df eb 97 bd e6 a1 ab 3b
       -0.024108503 0.16988988 -0.07418036 0.0052378057
0001e0 8e 43 22 3e 6c d8 c6 bc d2 00 23 be b8 64 31 bd
       0.15846083 -0.02427312 -0.15918282 -0.043308944
0001f0 65 07 4e bd e5 bd 28 bc 6d 56 65 3c ce ea 92 bd
       -0.05030002 -0.010299181 0.013997656 -0.07173692
000200 71 f8 15 3e 1b a5 10 bd 44 0d 2e 3d b4 5a 9e bd
       0.14645554 -0.035313707 0.04249312 -0.07732144
000210 77 95 8b bd f6 ca b0 3c a1 64 f5 3c 3f e5 5d bc
       -0.068156175 0.021581154 0.02995521 -0.013543426
000220 ad 38 ea bd b1 a6 8c bd 1a b5 2a bc 41 b7 ea 3d
       -0.11436591 -0.06867731 -0.010419155 0.11460734
000230 9a 03 39 3c 0b d3 8e 3c 7d 26 e3 3d b5 68 88 bd
       0.011292363 0.017434618 0.110913254 -0.06660596
000240 3d dd 10 3e 81 b9 e2 bc bc e9 ec 3c 8d f2 a8 bd
       0.14146896 -0.027676346 0.028920047 -0.08249388
000250 db 0a e5 bd 98 7c 17 be 68 30 a4 3d 4c a2 e4 bd
       -0.11183711 -0.14793622 0.08017045 -0.11163768
000260 9b 8c 09 be b6 e6 83 3c 76 f5 49 bd 8b 81 6c 3d
       -0.13432543 0.016101222 -0.049306355 0.05774073
000270 4a 67 3e 3d 9e df f0 3c be d6 eb 3c 5f f2 c3 3d
       0.046485223 0.029403504 0.02878892 0.09567713
000280 08 1a a3 bd cd 33 e5 bc 32 00 ae bd d6 d4 bc 3c
       -0.079639494 -0.027978802 -0.08496131 0.023050707
000290 22 70 6c bd 44 26 d4 bd 75 4c aa 3c 22 bf 49 3e
       -0.057724126 -0.10358861 0.02078841 0.19701818
0002a0 b1 a5 13 bd a4 e0 2c 3e d3 39 cb 3d 54 3f f2 3d
       -0.036046688 0.16882569 0.099231385 0.11828485
0002b0 19 f1 c2 3d 6a a0 40 bd 36 d4 6a 3d 48 4e 00 3e
       0.09518642 -0.047027983 0.057331286 0.12529862
0002c0 cf a2 c0 bd 4e b1 c7 bd 6d 13 b7 3d 7f 6a a7 bd
       -0.09406053 -0.09750615 0.08939252 -0.081746094
0002d0 67 ca 50 3d 39 39 e8 bb 87 25 3e bd c8 53 e6 3d
       0.050974276 -0.0070868996 -0.046422508 0.11246449
0002e0 ce bd 10 bd 1e 57 83 bd 75 6b 39 bd 83 e5 eb bd
       -0.03533726 -0.06413101 -0.045268495 -0.11518385
0002f0 8a 6d 1f bd ee 59 0f bd ef 3a 31 3d 22 a8 73 3d
       -0.038922824 -0.034997873 0.043269094 0.059486516
000300 df 50 3b ba fd c1 fb 3d f4 f0 b2 3d 17 36 9c 3d
       -0.00071455346 0.1229286 0.087373644 0.07627504
000310 66 82 34 3d e6 25 8b 3c d8 48 0e be 19 48 c3 bc
       0.04406967 0.016985845 -0.13894975 -0.02383809
000320 cf 67 df bb 15 65 f3 bc 93 22 12 3e a5 df 3b 3d
       -0.006817795 -0.029711286 0.14271002 0.04586758
000330 0d 0c ce 3d 98 a0 ca bc 19 60 c6 3d 41 0e 46 3b
       0.10060892 -0.02473478 0.09686298 0.0030220898
000340 d8 a7 92 bc de 14 02 bc 8e 72 55 bd bd 9b 8f bd
       -0.0179023 -0.007939545 -0.0521112 -0.070121266
000350 cb 67 db bd e2 45 b0 3d 10 f3 1b be 72 84 02 bc
       -0.10713156 0.08607079 -0.1522944 -0.007966148
000360 be f5 b7 bd be d9 dd 3b ef 20 9a bc e9 37 a6 bd
       -0.089824185 0.0067703417 -0.018814532 -0.08116133
000370 ad 83 41 3d 0f 77 99 3d b8 ba 11 3e bf 38 66 bc
       0.047244716 0.07493412 0.14231384 -0.014051615
000380 de 69 ff bb 83 0c d4 bd 16 e9 d3 3d 76 77 b6 3b
       -0.007794603 -0.10353949 0.10347192 0.00556844
000390 4f f9 4f 3d 6b c3 77 bd 35 6b 28 3e 1f 7f 11 be
       0.05077487 -0.0604891 0.16447146 -0.14208649
0003a0 fa e1 0d 3e 9d 56 57 3b 36 6a 45 bd 72 4a 4f bc
       0.13855734 0.0032858022 -0.048196994 -0.0126520265
0003b0 9a 91 f2 3d a1 0e f7 3d 81 c9 3e bc c6 23 77 bd
       0.118441775 0.12063337 -0.011644722 -0.06033685
0003c0 5f c6 cf bc e0 a9 c5 bd af 8c 1a be b3 69 48 3d
       -0.025363145 -0.09651542 -0.15092729 0.048928928
0003d0 9f 94 90 bd b0 3f aa 3c 7b 28 06 3e 57 78 00 3e
       -0.07059597 0.020782322 0.1310138 0.12545906
0003e0 ce 4f 42 bd 80 d2 cb 3d 09 a0 3c 3d b5 d4 ec 3d
       -0.04743939 0.09952259 0.04605106 0.11564008
0003f0 50 3d 88 bd 7b f3 1b 3a 6a 13 bf bd 57 59 59 bd
       -0.066523194 0.0005949062 -0.09329875 -0.053063717

cnn.layer_3.conv2.weight f4 [16, 16, 3, 3]
000000 b4 18 bb bc 8f a4 45 3d ee c1 0f 3e ff b1 d8 3a
       -0.022838928 0.04825264 0.14038822 0.0016532539
000010 36 8a e8 bb b1 fd c6 3d 96 93 c9 ba 39 cd e2 3d
       -0.007096554 0.097163565 -0.0015379067 0.11074299
000020 de 60 a8 3d 71 c4 b7 bc 89 9b a3 bc cc 07 96 bc
       0.08221601 -0.022432538 -0.019971626 -0.018314265
000030 df f7 2b bd 54 d0 0c be d5 c0 68 3d 6c 0b 76 bd
       -0.041984435 -0.13751346 0.056824524 -0.060069486
000040 4a 0e 8c bd 0e 41 7a bd 76 62 dc 3c c2 0b f5 3c
       -0.06838663 -0.061097197 0.026902419 0.029912833
000050 9f 96 fc 3d 8f 53 0d bd b5 91 a8 3d 3a 0b a2 3d
       0.12333416 -0.034503516 0.082309164 0.079122975
000060 16 fd 91 3d 73 ce 5a 3d 57 cf 0c 3e f3 ce 1f 3c
       0.071283504 0.05341954 0.13750969 0.00975393
000070 d3 b1 5c bd fc 14 7c ba 7e 03 90 3c 93 15 83 3d
       -0.053880524 -0.0009616164 0.01757979 0.06400599
000080 83 27 6d 3d 9f ff d2 3c 1b 3d d8 3b cc 16 91 3d
       0.05789901 0.025756655 0.006599081 0.07084426
000090 bc 4a 3c bc cd f9 24 3d 06 e6 29 bc 2e f7 fa bc
       -0.011492427 0.04027729 -0.010369783 -0.030635443
0000a0 f7 56 8a 3d a0 1a da bc c2 2e 0b 3d 3f a3 83 3c
       0.067548685 -0.026624024 0.03398014 0.016069053
0000b0 83 22 57 3c 73 e7 3f 3d ab 1d 6b bd fd 89 73 bd
       0.013130787 0.046851587 -0.05740134 -0.059457768
0000c0 a7 5d 99 bd b2 5c 52 bd dd cc 4e be c8 e5 09 3d
       -0.07488566 -0.051357932 -0.20195337 0.033666402
0000d0 5c bf ef 3b 1a c1 4f be df 59 6b 3d fc 9d b5 3d
       0.007316513 -0.20288506 0.057458755 0.08868024
0000e0 4e 12 d1 3c 41 c7 59 bb 54 c2 98 3c f6 61 f0 3d
       0.025521424 -0.0033230337 0.01864735 0.117374346
0000f0 7e 61 42 3d 4d 4e aa 3d 2a 70 0f 3e 16 af c3 bc
       0.047456257 0.08315716 0.14007631 -0.023887198
000100 fd 6b 2b 3d 95 2b 50 bc f4 34 25 bd 45 6c 4e bd
       0.041851033 -0.012705703 -0.040333703 -0.050396223
000110 7b 51 5f bc c7 6f ce 3c d4 8a 1e 3b ff 67 f2 3c
       -0.013630266 0.025199784 0.0024191635 0.029590605
000120 32 08 83 3d c2 57 e4 3d 61 64 26 3d e5 1f 84 bd
       0.063980475 0.11149551 0.040623073 -0.06451396
000130 33 82 a9 3d 86 9e fd 3d 22 91 9a 3c 45 54 96 3d
       0.08276787 0.123837516 0.018868033 0.07340292
000140 88 08 c4 3c 40 45 1d 3d f4 3e d2 bc 33 3b 66 bc
       0.02392985 0.03839612 -0.025664784 -0.0140522
000150 70 c2 85 3d 8c 03 fb bc bc f5 d0 3d 53 ab b7 3d
       0.06531227 -0.03064134 0.1020312 0.089682244
000160 ad ca ac 3d 75 c6 04 3e 18 75 5d bc 3d 9f 91 bd
       0.08437095 0.1296633 -0.013516687 -0.071104504
000170 c6 f4 19 bd cc c3 88 3d be 1b d7 3d c9 52 59 ba
       -0.03758695 0.0667797 0.10503338 -0.0008290229
000180 a0 b9 a0 bc ec 08 0c 3a 9a 59 ec 3d 4c 39 10 bd
       -0.019619763 0.00053419056 0.11540528 -0.035210893
000190 a1 c9 37 bc 03 59 19 3e b6 ab a8 3c 01 61 c9 3d
       -0.011217506 0.14975362 0.02058969 0.09832955
0001a0 bf 16 31 3e ea a8 04 3d 80 16 77 3d de cf f7 3d
       0.17293833 0.03238765 0.060324192 0.121001944
0001b0 17 d9 6c 3d f4 ff 1e bb b1 3a 2e be 64 3f cd bb
       0.05782422 -0.0024261447 -0.17014576 -0.0062636603
0001c0 b4 0c 9b 3d 1a 5e 08 be 54 0f a3 bd 25 1c 03 3e
       0.07570782 -0.13317147 -0.07961908 0.12803705
0001d0 53 dd b3 bd b3 b3 c1 3e 43 8e 9e 3e 0d 6f 28 3d
       -0.087824486 0.37832412 0.30967912 0.04112153
0001e0 9a cc 78 3e d4 c0 43 3e 2c 16 05 be e3 4c 8a 3e
       0.242968 0.19116527 -0.12996739 0.27011785
0001f0 02 87 95 3e f1 54 6e 3d 78 f9 97 bd 9c 9b 53 bc
       0.29204565 0.058186475 -0.07420629 -0.012915518
000200 bf c8 eb 3d f5 13 77 3d 0f 29 5e 3d 2e b9 f6 3d
       0.11512899 0.060321767 0.054238375 0.12047039
000210 e0 32 79 3d 49 88 cf bc d0 36 10 3d cd b2 73 3d
       0.060839534 -0.02533354 0.035208523 0.05949669
000220 71 e7 ed 3d d5 5d 6d 3d 1b 8c 15 3c 36 28 04 bd
       0.116164096 0.057950813 0.009127642 -0.03226491
000230 33 8d 8d 3d b8 74 a6 bc eb 74 9a bd 66 85 00 3e
       0.06911697 -0.020319328 -0.075418316 0.12550887
000240 7c 37 54 bc 6c 68 db bb 2d b2 b5 bc ad cb 84 3d
       -0.012952682 -0.0066957977 -0.022179687 0.064841606
000250 ca ae d0 3c bd 05 fe 3c d9 3a 12 3e c8 af e5 3d
       0.02547397 0.031008596 0.14280261 0.11215168
000260 99 00 cd bd 28 67 45 3d af 8b 60 3d 80 b1 af bc
       -0.100098796 0.04819408 0.054820713 -0.021446943
000270 31 48 bb 3c fe e6 41 bc be 4e b5 bc 4d a8 21 3e
       0.022861572 -0.011834858 -0.022132274 0.15786858
000280 0a 45 b0 3d 77 4d fe 3d 5b 2a ff 3d ac 57 5e 3d
       0.08606918 0.12417119 0.124592505 0.05428283
000290 6a bf 9c bc 4a 12 dd 3d 0e cc 5a 3b fc a3 9e bd
       -0.019134242 0.10794504 0.0033385786 -0.07746121
0002a0 60 81 5b 39 63 dd 32 bd 2b 28 0b be 05 b2 95 3d
       0.00020933663 -0.043668162 -0.13589542 0.07309345
0002b0 e1 fc c6 3d 60 47 e4 ba c1 ac b6 3d 42 1a 3f 39
       0.097162016 -0.0017416291 0.08919669 0.00018224961
0002c0 06 63 43 bc ab 26 13 3e 42 6d e9 3d 79 b7 14 bc
       -0.0119254645 0.1437022 0.113977924 -0.009076946
0002d0 a6 2e b6 bd 03 6d 61 3d 5a 2e 17 3d d2 86 32 3d
       -0.08895616 0.055035602 0.03690944 0.043585606
0002e0 8a 28 18 bc b6 42 57 3b 5d e6 8e bd 89 92 f1 3c
       -0.009287009 0.003284616 -0.06977532 0.029488819
0002f0 22 f0 bb bd de f3 d8 3d 44 59 f3 3d 5f 88 b2 3d
       -0.09176661 0.10593389 0.118822604 0.08717417
000300 c1 49 f8 3d b7 f2 f3 3d 69 51 30 3c a6 23 4c 3e
       0.121234424 0.119115286 0.010761597 0.19935474
000310 b6 fd 23 3e 90 b7 5d 3e f3 c9 52 39 7b 20 51 bb
       0.16014752 0.21652055 0.00020102393 -0.003191023
000320 1f c8 ae bc af 2c 9d 3d 0d ec 83 bd cb 59 50 3c
       -0.02133566 0.07674538 -0.064415075 0.012716721
000330 9a 51 b8 3d 4a 57 d0 bd b8 04 1e 3e 90 5a 12 3b
       0.08999939 -0.10172899 0.15431488 0.0022331811
000340 74 18 a8 bc b9 1e 75 bd ca 66 0b bd 02 07 aa bd
       -0.020519473 -0.059843753 -0.034033574 -0.08302118
000350 fd da b0 bd 48 e9 f8 3c 1c 55 30 3d 43 53 1f 3d
       -0.08635519 0.030384675 0.043049917 0.038897764
000360 d8 2c cd 3d 13 d7 d5 bc bb e7 05 be 52 d6 11 3d
       0.10018319 -0.026103532 -0.1307668 0.035604782
000370 b6 4b 4e bd 83 4e 50 bd 86 c6 f1 3c 3c 6e 93 b9
       -0.050365172 -0.050856125 0.029513609 -0.00028120156
000380 61 4c 37 be 4e c7 ba 3d 9a e2 69 38 52 13 d8 3d
       -0.1790023 0.091200456 5.5762568e-05 0.1055056
000390 9e 2c a6 3d 56 79 5b 3d 07 75 83 bc 2b 68 a5 3d
       0.08113979 0.05358251 -0.016047014 0.08076509
0003a0 0c 9a 25 3d 98 4a 7a 3d ce 2c 2b 3b e2 b5 06 3e
       0.040430114 0.061106294 0.0026119235 0.1315532
0003b0 ae 99 95 3d 12 ea cb 3d 78 43 28 3d 1e e5 dc 3c
       0.07304703 0.09956755 0.04107997 0.02696472
0003c0 2d 91 75 bc 48 62 cc 3c 1e 59 b8 bb 0d 5d d7 3d
       -0.014988226 0.024949208 -0.005625858 0.10515795
0003d0 45 6e da bd 22 b4 85 3c 2c 57 3d 3d 3b ec ed bd
       -0.106655635 0.016321246 0.04622571 -0.11617323
0003e0 5c 54 39 bc a6 1c 4a 3d c7 9d ad bd 13 bd 4b bc
       -0.011311617 0.049343728 -0.08477359 -0.0124352155
0003f0 9a 3b b0 3c 2f bc 70 3d 17 5f d2 3c 0f 7f e4 3d
       0.021512795 0.058773216 0.025680108 0.11157047

cnn.layer_3.conv3.weight f4 [16, 8, 1, 1]
000000 ef a0 af be f5 ea a2 3e 01 f3 78 be 9f e0 d1 3e
       -0.3430247 0.31819883 -0.24311449 0.40991685
000010 e6 bf 19 3d cb b0 9e 3e a5 25 c6 3e df 9e de bc
       0.037536524 0.30994257 0.38700595 -0.027175365
000020 38 77 4a be 4d 07 f0 3d ce b8 b1 be ae b2 66 be
       -0.19772041 0.117201425 -0.34711307 -0.22529098
000030 99 2d 94 be 6f 2c 77 bd c5 d9 a3 3e db 8d 8f 3d
       -0.28941038 -0.06034511 0.32002082 0.07009479
000040 f0 1d 9e be 9d 21 a1 be 9a e5 a5 3e 70 7d 80 3e
       -0.30882215 -0.31470957 0.32401735 0.250957
000050 a4 ea 82 bd 79 f6 29 be c0 be 89 3e ba 65 2d 3d
       -0.063924104 -0.16597928 0.26903343 0.042333342
000060 8d a0 4d 3e 59 8e b2 3e 7a 9e 43 3e 10 a1 23 be
       0.20080777 0.34874228 0.19103423 -0.15979409
000070 66 f1 ee bd d4 85 ad be 38 84 9f be 91 70 0e 3e
       -0.11667137 -0.33891165 -0.31155562 0.13910128
000080 0b 17 82 3e 31 4f ee 3d 15 b6 c2 3d a5 d9 8d 3e
       0.25408205 0.11636198 0.09507386 0.27705112
000090 a7 cf 4f 3e 19 6b eb bd 24 be f9 bd 24 48 b1 3d
       0.20294057 -0.11495037 -0.121944696 0.08656338
0000a0 61 40 ad 3e 06 c3 79 be cd c2 2a be 73 6c 2e 3c
       0.3383818 -0.24390802 -0.16675873 0.0106459735
0000b0 56 42 3f 3e 46 5f 80 3e 47 fe 92 be ea 50 14 be
       0.18677649 0.25072688 -0.28709623 -0.14483991
0000c0 ca 7a b5 3d 77 af d1 3d 95 de 2c bd 8c 2b 58 be
       0.08861311 0.102385454 -0.04220446 -0.21110362
0000d0 5e 34 a8 3e 55 b6 69 be 18 4a 10 3e 84 74 60 be
       0.32852453 -0.2282346 0.14090765 -0.21919447
0000e0 17 6b 1a be 40 9c 2e 3e a7 3a aa 3e 32 c7 1d 3e
       -0.15079914 0.17051792 0.33247873 0.15408018
0000f0 10 e0 2d 3e 3c b2 a3 bd e1 d7 a6 be 96 ad 7b 3e
       0.16980004 -0.0799298 -0.32586578 0.24577937
000100 c8 94 c5 be 8e e7 23 3e f3 7b b8 bd c0 4e 20 be
       -0.38590074 0.160063 -0.090080164 -0.1565504
000110 6d 25 da 3c fd e7 a7 3e 73 de 51 be af 3b 8b be
       0.026629174 0.3279418 -0.20495014 -0.27193972
000120 07 b0 e9 3d 28 80 8f 3d 6e 31 0b be 0d 5b 85 3c
       0.11410528 0.07006866 -0.13593075 0.016278768
000130 22 e8 2c bd c1 78 1e 3e bf 4f 81 be 10 1e c0 3e
       -0.042213567 0.15475751 -0.25256154 0.37522936
000140 a3 a2 99 3e 39 a3 7c 3e 95 3b 6e bd 6e b7 af 3e
       0.30006894 0.2467164 -0.05816229 0.34319633
000150 0e bb 01 3c 8d 1e a0 be c0 53 48 bd ae 19 4d bd
       0.0079181325 -0.31273308 -0.048907995 -0.05007332
000160 9c 99 16 be 5f af 70 be 35 60 30 be 54 20 36 be
       -0.14707035 -0.23504399 -0.172242 -0.1778577
000170 d4 83 b8 bd a2 e7 cc 3e 81 c4 e1 3d 79 fd ff bd
       -0.09009519 0.40020472 0.11023808 -0.12499518
000180 ba f2 c7 3d 09 93 36 be 13 b3 df 3d ac ec 20 3e
       0.09763093 -0.17829527 0.109228276 0.15715283
000190 ea d2 24 3e 51 8d 5b 3c 8c 9c 97 3d 15 ea b1 3e
       0.16096082 0.013400392 0.07402906 0.34748903
0001a0 6b 93 bc bc f7 c2 83 3e c6 2d 2b be a1 58 ab 3e
       -0.023019513 0.25734684 -0.1671668 0.33466056
0001b0 d7 7e 91 bd fa 10 83 be e4 63 74 be 98 f9 61 bd
       -0.07104271 -0.2559889 -0.2386623 -0.05516967
0001c0 22 f0 7b be 71 13 85 be ec b3 c8 be d8 48 e2 bd
       -0.24603322 -0.25991395 -0.3919977 -0.1104905
0001d0 c8 4f 8e bd 99 82 74 be a3 f9 06 3e 7e f9 b9 3e
       -0.06948811 -0.23877944 0.13181166 0.3632316
0001e0 f3 49 8e be db da 3d bc 59 46 75 3e 10 6e 91 3e
       -0.27790794 -0.011587824 0.23952617 0.28404284
0001f0 02 0d b2 3d 43 c8 1b be 66 a5 15 be 11 c2 2e 3d
       0.08693887 -0.15213113 -0.14613876 0.042665545

cnn.layer_5.conv1.weight f4 [32, 16, 3, 3]
000000 0b e5 7b 3d 50 e6 03 bd 15 87 9e bd ce 83 aa 3d
       0.06149773 -0.032202065 -0.077406086 0.08325921
000010 e3 6e 58 bd 54 13 47 bd ab 24 1c 3d 55 b3 00 bd
       -0.052840125 -0.048602417 0.038120907 -0.031421024
000020 9a 25 81 bd 31 10 d3 3c ea 1a fc 3d 6a 8b e8 3d
       -0.06306 0.025764557 0.12309821 0.11354716
000030 81 ec 91 3d 81 b9 f7 3d 61 23 30 3d e2 49 84 3d
       0.07125188 0.12095929 0.04300249 0.064594045
000040 bb c3 fa 3d 26 b2 18 3e 0d c3 80 bd 02 88 04 3d
       0.12244364 0.14911708 -0.06287203 0.03235627
000050 d3 3a 41 3c bd 78 79 bd d8 0a 08 3d a1 ef 6c bd
       0.01179381 -0.06090616 0.033213466 -0.057845715
000060 d0 fb c7 bc 44 50 5f 3d c5 77 a5 3c 1d aa 7e bc
       -0.024412066 0.054519907 0.020198712 -0.015543488
000070 d9 0c 87 bd 96 d6 d4 3d 3c b8 0d 3d f5 d2 79 3d
       -0.06594247 0.103924915 0.034599528 0.0609922
000080 ed b3 e3 3d db 26 9b 3d 29 67 97 bc bf 63 86 3b
       0.111183025 0.075757705 -0.018481808 0.004101246
000090 7c 55 00 3d a6 f2 23 3c 81 e9 82 bc 6e 47 91 bc
       0.031331524 0.010006582 -0.015980484 -0.017734256
0000a0 15 40 00 3b 14 4d 54 3d 23 4d 1a bd 3b d8 7a 3d
       0.0019569446 0.05183132 -0.03767122 0.06124137
0000b0 01 e7 d4 3d f2 47 08 bd dc f8 d8 bc 94 84 98 3d
       0.10395623 -0.033271737 -0.026485853 0.07447162
0000c0 62 3e 02 3d 4b 25 98 3d 25 cc 08 3e b3 f7 61 3d
       0.031797774 0.07428988 0.13359125 0.055167865
0000d0 e9 27 d7 3a bb 9a b3 3d 03 18 63 3d 9b f2 25 bb
       0.0016415092 0.08769747 0.05544282 -0.0025321606
0000e0 10 67 3f 3e f8 2a 49 bd 1f 1d c9 bd f1 66 87 3d
       0.18691659 -0.049113244 -0.098200075 0.066114314
0000f0 b3 d6 c1 bd 07 16 f4 bd e4 c6 2b 3e 03 0b b6 3d
       -0.09464779 -0.11918264 0.1677509 0.08888819
000100 67 95 cc bc 5b 7f b7 3c d3 55 ae bc 0e 71 ea 3c
       -0.024973584 0.022399595 -0.021281159 0.028618362
000110 eb 09 31 3d 63 a6 67 3d 98 6a da 3a 36 67 87 3d
       0.04322235 0.056555163 0.0016663847 0.06611483
000120 0e 1f 61 3d 49 87 3c bd 0b 39 48 bd fa 3d a1 bc
       0.054961257 -0.046027455 -0.048882525 -0.019682873
000130 f5 03 0a bd 8e a4 00 be d0 54 b2 bb d1 7e 1c be
       -0.03369518 -0.12562773 -0.0054422393 -0.15282752
000140 f0 d9 ab bc 3a 65 b8 3d 84 ae bf 3c df 1c ba 3d
       -0.020977944 0.090036824 0.023398645 0.09087538
000150 d8 8d 3e bd c2 ea c2 3d 7d af 7b 3c 48 bf 7b 3d
       -0.04652199 0.09517433 0.015361664 0.061461717
000160 31 eb d1 37 68 80 7f 3c b1 7d 1e 3d 09 d3 79 3d
       2.5024261e-05 0.015594579 0.038694087 0.060992274
000170 c8 09 2d 3d 6c b6 75 3d 6c b8 70 bc 17 8b 8a 3d
       0.042245656 0.059988424 -0.014692407 0.067648105
000180 a9 20 0f bc 4b 71 9c 3c 53 cb 26 bd 32 62 17 bc
       -0.008735814 0.019096991 -0.04072125 -0.00923972
000190 38 21 ad bd 4b 94 cb bd da 7f 15 bd ee 09 37 bd
       -0.084536016 -0.09940394 -0.036498882 -0.044687204
0001a0 a9 1a 15 be 0a ec 56 3d d8 dc b5 bd 4c ed 15 be
       -0.14560951 0.0524712 -0.08880013 -0.14641303
0001b0 c2 cb 72 bd 1d ea 0b 3d 90 e0 23 3d 7a d9 85 3d
       -0.05927635 0.034158815 0.04000908 0.06535621
0001c0 e2 22 7e bd 53 93 d8 bb b8 44 1e bd 4d 4a 3a bc
       -0.062044986 -0.0066093593 -0.038639754 -0.011370254
0001d0 d4 39 0e 3c 41 af d7 3c 6b 77 34 bd 21 d0 22 bd
       0.0086807795 0.026328685 -0.0440592 -0.03974927
0001e0 95 d5 d8 3c 77 bd 10 3d a7 4d 6e 3d cc e7 c5 ba
       0.026469031 0.035336938 0.058179524 -0.0015098988
0001f0 fc a9 a9 bb 19 65 59 bd c8 62 33 3c 29 bb 2f bb
       -0.0051777344 -0.05307493 0.010948844 -0.0026814437
000200 5b bf a0 3d 81 e8 e0 3b 7f 1e e3 bb 97 32 91 3d
       0.07848998 0.006863654 -0.0069311257 0.07089727
000210 c9 d1 f7 bc 26 48 f6 3c 62 ef bf 3c 50 09 85 3d
       -0.0302514 0.0300637 0.023429576 0.06495917
000220 08 08 d9 3b ba c8 a3 bd 21 f4 7c bd bb 8f 16 ba
       0.006623272 -0.0799727 -0.061756257 -0.00057434634
000230 51 49 3e bd 6e 86 86 bd a1 55 f9 bd 89 82 00 be
       -0.04645664 -0.06568609 -0.121745355 -0.12549795
000240 15 83 bf bc bc d3 8a 3d 13 54 f1 bc 8a 9f 1e bc
       -0.023377934 0.067786664 -0.029459035 -0.009681592
000250 a7 c5 7c bd 73 c2 c6 3c c8 0e 93 3c 54 36 98 3c
       -0.061711933 0.024262642 0.017951384 0.018580593
000260 d7 83 88 3d 6a 0c ae 3d e1 e5 ed 3d 3d f3 b9 3d
       0.066657715 0.084984615 0.116161115 0.09079597
000270 de 8e 9f 3d f6 e7 3e 3e ef 10 28 3e 25 7c 28 3e
       0.07790922 0.18643174 0.1641271 0.16453607
000280 4d 19 01 3e 43 2d d3 3d fa 4f b9 3b e0 68 73 3d
       0.12607308 0.10311367 0.005655286 0.05942619
000290 6b 0e a3 bd 58 d7 ad bd 5e a3 8b 3d c9 ec 83 bd
       -0.079617344 -0.08488339 0.06818269 -0.064416476
0002a0 cb 59 19 3c 1e 38 b9 bd c7 a4 74 bd 9a c7 ac 3d
       0.009359787 -0.09043907 -0.059727456 0.084365085
0002b0 fb 7b db 3c 97 7c bc 3c ee f6 d0 3d eb b4 32 3d
       0.026792517 0.023008628 0.10203348 0.043629568
0002c0 d3 8c 36 bd a7 cb 1d 3c de 97 00 3e a0 48 3e bd
       -0.044567894 0.009631074 0.12557933 -0.04645598
0002d0 a0 bb 5d bc c1 52 25 bb 44 1e 38 bd 0a 69 fe 3d
       -0.013533503 -0.0025226327 -0.04495074 0.12422378
0002e0 b7 b6 3f 3c 25 cc 9e 3d ac 1d b0 3d f9 bb b9 3d
       0.011701277 0.07753781 0.085994095 0.09069056
0002f0 67 0a ae bc db a7 16 3d d3 af 7e bc e3 dd dd 3d
       -0.021245195 0.036781173 -0.015544849 0.10833337
000300 3e 52 11 3d cc 7f a4 3c cc e3 fa 3d 9c 5b aa 3c
       0.035478823 0.02008047 0.1225048 0.020795636
000310 1e 11 20 3d ba 56 cb 3d 8a 4b a4 3d 92 c5 fb 3d
       0.039078824 0.09928651 0.080222204 0.12293543
000320 14 31 b2 3d 08 2d 84 3c 11 07 87 3d 4a 94 63 bd
       0.08700767 0.016134754 0.06593145 -0.05556134
000330 6d e9 40 3e 02 70 ab 3b dc 39 24 3d d0 3d 84 3b
       0.18839045 0.005231858 0.04009424 0.004035689
000340 fe c6 a9 3d c4 e0 07 3d a0 a2 c1 3c c2 d9 d4 3d
       0.08289908 0.033173338 0.023637116 0.103930965
000350 88 b7 a2 3d 13 53 ac 3d f9 78 b1 3d 3c eb f7 bc
       0.07945162 0.08414283 0.08665652 -0.030263536
000360 1f b5 e9 bd 61 0b 03 3d 1a 7f 0b 3c 64 4f eb bd
       -0.11411499 0.031993274 0.00851419 -0.11489752
000370 92 d4 22 be bb 8d 93 bb a3 2c 23 be 19 86 43 bd
       -0.15901402 -0.0045029796 -0.15934996 -0.047735307
000380 b5 02 11 be 79 17 fb bc 0d f2 29 3d 21 05 02 3d
       -0.14161189 -0.030650841 0.041490603 0.031743173
000390 5f 74 bf bb 75 64 14 3d 9b 7c f8 bc c2 c4 d6 3d
       -0.00584273 0.036228616 -0.030332854 0.10486747
0003a0 3b ac 81 3d 83 f4 da 3c 9f 9c 5b 3c e5 81 72 bd
       0.063316785 0.02672792 0.013404041 -0.05920591
0003b0 b7 0b 94 3d e6 1e e8 3d 3b 8f bd 39 a5 56 53 bd
       0.07228797 0.113340184 0.00036155604 -0.051596303
0003c0 4c a4 a3 3d b2 d5 7b bc 4b 2b 05 bd ae 92 7e bd
       0.079903215 -0.015370773 -0.03251199 -0.062151603
0003d0 50 de 37 3d 72 ed 9e 3d 3e fc 95 3c 2a 58 4b 3d
       0.044889748 0.07760133 0.018308755 0.049644627
0003e0 3e e1 8b bd a9 65 d1 3c cc 52 82 3c f9 4f 73 bd
       -0.06830071 0.02556117 0.015908621 -0.05940244
0003f0 ec e5 8d 3d 88 42 81 bd 7b c6 49 3b e9 8b df 3c
       0.0692862 -0.06311518 0.003078847 0.027288394

cnn.layer_5.conv2.weight f4 [32, 32, 3, 3]
000000 17 de 1d bd 5f d2 2d bd 19 b5 d3 bc 5b d8 3c 3d
       -0.03854188 -0.042436954 -0.02584319 0.04610477
000010 89 ad c7 bc 35 52 2d 3b 3e fd 32 3d cf b3 32 3b
       -0.02437474 0.0026446704 0.04369854 0.0027267819
000020 57 33 88 bc 8a c5 83 3d 5f 3a 17 3d 24 87 4f 3d
       -0.016626043 0.06434162 0.0369209 0.05066599
000030 dc 04 01 3d 0d 55 b7 3d fc 21 3b 3d 82 dc d9 3c
       0.031498775 0.08951769 0.045686707 0.026594404
000040 38 f5 bd 3d 5d 8d 94 3d 1d 59 f4 b9 15 79 a7 3c
       0.092752874 0.072535254 -0.000466057 0.020443479
000050 e8 36 01 3d f7 47 cf bc 6e e8 28 3d 18 c3 37 3d
       0.031546503 -0.02530287 0.041237287 0.04486379
000060 0e 69 ad 3c 80 ba 23 3c 0c aa 89 3d 0a e4 56 bd
       0.021168258 0.0099931955 0.06721887 -0.05246357
000070 75 0d 14 bd f3 78 04 bd d2 4b ad bc 15 14 cd bd
       -0.036145646 -0.03234191 -0.021154318 -0.10013596
000080 20 8e 58 bd 85 8d a9 bd 1e e0 5f bd f4 55 d2 bd
       -0.052869916 -0.08278946 -0.054657094 -0.102703005
000090 b3 f4 c5 bd 36 17 b0 bc e6 8a 30 3d 65 6f a0 bd
       -0.09665813 -0.021495443 0.043101214 -0.07833747
0000a0 d7 4a ce bd 40 41 33 bd 38 51 10 bd d6 bd c2 bd
       -0.10072868 -0.0437634 -0.035233706 -0.095088646
0000b0 1d 2d d9 3b 76 56 28 3c 97 24 25 3d 2f bd 95 3d
       0.0066276924 0.01027452 0.040318098 0.073114745
0000c0 94 7c 0d 3c 89 ec 17 bd 84 b9 79 3d 41 7a fa bb
       0.008635659 -0.037090812 0.060967937 -0.0076439683
0000d0 f2 e3 62 3d 7e a3 8b 3d 50 0a 0c 3d dd e7 9b 3c
       0.055393167 0.06818293 0.034189522 0.01903146
0000e0 f0 72 7e bc c5 76 62 3d c1 4f 08 bc 35 50 10 3d
       -0.015530333 0.05528905 -0.008319796 0.03523274
0000f0 be 0c ae 3c 7b e2 4c 3d 43 7f 35 3d 12 8f 4b 3d
       0.02124631 0.050020676 0.04431082 0.04969699
000100 c3 c0 8f 3d 2f 93 21 bb 36 91 fe bb f4 f1 97 3d
       0.07019188 -0.0024654379 -0.0077687753 0.07419196
000110 10 d8 61 3c b3 f1 66 3d 22 44 0c 3d d3 c2 d4 bc
       0.0137844235 0.056382846 0.034244664 -0.025971806
000120 d3 f4 f2 3c e5 3d 7f bd 68 56 ad bc 87 5f 99 bc
       0.029657757 -0.062314887 -0.021159366 -0.018722309
000130 8a ef b2 bc 26 83 06 bc c6 51 85 3b 26 d1 fb bc
       -0.021842737 -0.008209979 0.004068586 -0.030739378
000140 e0 4d 39 bd 05 c8 20 bd d9 e2 27 bb eb 94 21 3d
       -0.045240283 -0.039253253 -0.002561739 0.03944866
000150 d5 a0 c1 3c 5c fe 86 bd 87 23 2b 3d dc 12 66 bd
       0.023636261 -0.06591484 0.04178193 -0.05617033
000160 60 fa 01 bd af 86 ed bc ea c0 0f 3d 92 70 55 3d
       -0.031732917 -0.028994886 0.035096087 0.05210931
000170 a1 37 60 3c 78 5f 90 3d f1 a0 84 bc 37 5a 8b 3c
       0.013685138 0.07049459 -0.016190024 0.017010791
000180 d1 56 dd bc 67 96 b4 bb 3d ea 83 3d ab 72 fb 3c
       -0.027018936 -0.0055110934 0.06441162 0.030694326
000190 c2 9c 6c 3d 8f f5 29 3d 63 4c c8 3c 53 cf 46 bd
       0.057766683 0.04149395 0.024450487 -0.048537564
0001a0 0e 3d 5c 3c bc 59 45 bd 24 bc 3d 3b 44 ee 28 bc
       0.013442291 -0.04818128 0.0028951252 -0.010310713
0001b0 7d 75 25 3e ac 7e ed 3d 20 39 9b bd bd 44 0d 3d
       0.161581 0.11596426 -0.07579255 0.034489382
0001c0 99 73 4f 3d 09 6b b9 bd 0a 18 ab bc a7 b2 f5 3c
       0.050647352 -0.090536185 -0.020885486 0.029992415
0001d0 2a c1 b1 bd 0d 59 5a bd f3 cb ad 3c 04 17 02 bd
       -0.08679421 -0.05330758 0.021215415 -0.03176023
0001e0 5e f9 91 bd b5 08 5f bd 1a fd 99 bd ea 03 9c bd
       -0.07127641 -0.054451663 -0.075189784 -0.07617934
0001f0 3e 28 de bc 33 c9 41 bd 25 28 0d bd 52 2f c6 bc
       -0.027118798 -0.04731102 -0.034462113 -0.024192486
000200 a4 fd c0 3c 3b a9 26 3c e7 bc 70 3d da d4 75 3d
       0.023558445 0.010172184 0.0587739 0.060017444
000210 a0 ae 1d 3d 80 64 81 3c 87 88 09 3d cd d6 2b 3d
       0.038496614 0.015794992 0.03357747 0.041952897
000220 84 7a 92 3d e4 01 a3 3b 84 a6 9a 3c 40 0f 6d 3c
       0.07152274 0.0049745906 0.018878229 0.014468968
000230 ff 3b 42 3b 1d 79 2c 3d 2c d7 13 bc f0 db b2 3d
       0.0029637811 0.04210769 -0.009023469 0.08733356
000240 24 0c 9f bd 02 47 00 bc 7c cc 37 3e ec d6 e7 bd
       -0.077659875 -0.00782943 0.17949098 -0.1132029
000250 32 5d 91 bd 36 d5 10 3e 40 33 ca bd b0 c0 c7 bd
       -0.07097854 0.14143834 -0.098730564 -0.09753549
000260 8c ff 1f 3e 9a 3c 13 3c ff c7 1d 3d 29 3d 6a bb
       0.15624827 0.0089866165 0.03852081 -0.003574202
000270 12 22 0b 3c d0 d5 32 bd 12 42 b3 3a 38 91 21 3c
       0.00849201 -0.04366094 0.0013676307 0.009861283
000280 8b dd c4 3c 77 2e 32 3d d6 ca 6b 3c 22 85 25 3d
       0.024031421 0.043501344 0.014391622 0.04041017
000290 9f a1 3f 3d a5 69 9f 3d 8c ae 04 3d f3 c7 71 3d
       0.046784993 0.07783822 0.032393023 0.059028577
0002a0 5b 61 29 3d ab a1 38 3d 0d 03 50 3d 48 10 47 bc
       0.04135261 0.045076054 0.05078416 -0.012149878
0002b0 35 2e d9 3c 2d b9 ed bc d8 cc 9a 3b 0a f0 01 bd
       0.026511291 -0.029018963 0.0047241263 -0.03172306
0002c0 45 05 e3 3c fd f5 69 bc c4 75 8d 3d 2d 22 18 3d
       0.027712474 -0.01427984 0.06907228 0.037141968
0002d0 ab 69 b4 3d f2 d7 a0 3d 80 8b be bc 53 25 4e 3d
       0.08809217 0.07853688 -0.023259878 0.050328564
0002e0 f8 37 42 3c 9d 8b c5 3c 2e b8 65 3d 05 08 e2 3c
       0.011854164 0.024114424 0.05608385 0.027591715
0002f0 9c f4 8d 3d 6c cd 80 3d 5d c0 96 3b 4d 31 bf 3d
       0.06931421 0.06289181 0.004600568 0.09335575
000300 0b b7 94 3c 12 77 bb 3c a8 59 50 3c 60 68 8d 3c
       0.018153688 0.022883926 0.012716688 0.017261684
000310 cc 0a 8c 3d 69 2a 13 bc d5 09 b6 3c 03 28 94 3c
       0.06837997 -0.008982279 0.022221485 0.018085485
000320 c7 65 9e 3d 94 d6 e9 bc 4a 58 cc 3a e7 3e 08 3d
       0.07734256 -0.028544702 0.0015590277 0.033263113
000330 46 d1 8f 3d 9b 66 cb 3c 42 d0 0d 3d f2 9d dc bc
       0.070223376 0.0248292 0.03462244 -0.026930783
000340 89 89 9e 3c ff db 12 bd d3 cf 60 bc 31 c2 e7 3a
       0.019352691 -0.035854336 -0.013721424 0.0017681775
000350 dc ba 99 bd d9 d3 5e bd e0 c4 41 bd 74 e9 5e bc
       -0.07506344 -0.054401252 -0.047306895 -0.013605464
000360 9e af 4c 3d 7f da 41 3d 95 ec b1 3a a3 21 19 3d
       0.04997217 0.047327515 0.0013574535 0.037385594
000370 52 6a 28 3c a2 ad be bc 0f 80 77 3d 38 7c 91 3d
       0.010279255 -0.023276154 0.06042486 0.07103771
000380 4a 57 cb bc 53 9c 26 3d e5 39 0f 3d bb 55 8a 3c
       -0.024821896 0.040676426 0.034967322 0.016886583
000390 8b 7d 44 3c 4f 79 4d 3d 27 f4 91 3d ee 34 b3 3d
       0.011992822 0.050164517 0.071266465 0.0875033
0003a0 7a 48 7d bb 3b 9a 25 3c 62 8b da bc e8 7a f2 3c
       -0.0038647936 0.010107572 -0.026677791 0.029599622
0003b0 1c 2b aa 3d f4 b2 6e bc f3 8d 22 3d 03 14 b4 3d
       0.08309004 -0.014569033 0.039686155 0.087928794
0003c0 dc 0f 6c 3d 4b 03 b0 3d ef f8 84 3d f8 89 96 bd
       0.057632312 0.08594378 0.06492793 -0.07350534
0003d0 eb c6 8d bd d9 a4 d5 3c 97 f0 c6 bd 2e 4e 85 bd
       -0.06922706 0.026079582 -0.097138576 -0.06509052
0003e0 7f e6 28 3b c7 04 8a bc cd a0 d7 bd 17 48 b7 bd
       0.0025772152 -0.016847981 -0.10528717 -0.08949297
0003f0 12 e8 e0 bd 48 6e bd bd 92 c4 39 bd 94 59 e9 3d
       -0.10981764 -0.0924955 -0.04535348 0.11394039

cnn.layer_5.conv3.weight f4 [32, 16, 1, 1]
000000 ba f3 c6 3d 6d da 2d 3d 16 b3 b2 3d 8b 8f 04 3e
       0.09714456 0.042444635 0.08725564 0.12945382
000010 6d 9a 1e 3e c0 9b d6 bd 0c a7 4d bd d2 8a 89 bd
       0.15488596 -0.10478926 -0.050208136 -0.06715931
000020 bb a2 7f be 5d ed 4b 3e b5 44 59 3e ca d3 58 be
       -0.2496442 0.19914766 0.21217616 -0.21174541
000030 96 c1 3f be 36 ae 5e 3e 9a bd c2 3d 83 3b 21 be
       -0.18726191 0.21746144 0.0950882 -0.15745358
000040 29 81 af bd e5 05 32 3e 33 2b 63 3e 9c fe 93 be
       -0.08569557 0.17385061 0.22184448 -0.2890519
000050 81 e9 38 be c3 b9 40 bd 95 f3 be 3d c6 24 15 3d
       -0.18057825 -0.047052156 0.09323803 0.036412023
000060 de b7 50 3d f9 08 5c be e7 b6 f5 bd 43 cf 34 be
       0.0509566 -0.21487798 -0.119977765 -0.17657189
000070 67 80 48 bd 45 8b 0c be f2 82 20 3e cb 9f 97 3d
       -0.04895058 -0.13725002 0.15674952 0.07403525
000080 02 e1 23 3e 6a 01 d1 bd 2b 3c bc 3d 39 4c a5 3c
       0.16003802 -0.10205348 0.09191164 0.020177947
000090 7c c7 4a 3d 39 57 61 bd cf 96 4f be 75 3f 28 be
       0.04950665 -0.055014823 -0.20272373 -0.16430457
0000a0 50 94 5f be 15 8e 1f 3e 18 04 62 be 49 cb 5b be
       -0.2183392 0.15581544 -0.22071874 -0.21464266
0000b0 04 01 2f 3e 2e 6b b1 bd db 65 1c be 2e ac e7 3d
       0.17090231 -0.08663021 -0.1527323 0.113121375
0000c0 05 1e c5 bd 2a 9f 09 3e 6a 65 0e 3d b7 87 71 be
       -0.096248664 0.13439623 0.034764685 -0.23586927
0000d0 2e b0 8b 3d 93 e4 74 3d 5a bf c0 ba a4 9d 84 3d
       0.06820713 0.059788298 -0.0014705465 0.0647538
0000e0 d6 49 d2 3d d4 03 8f 3d f5 57 10 3c c9 70 3a be
       0.10267989 0.06983152 0.008810033 -0.18207087
0000f0 f0 65 88 be 82 af 1b bb 81 f2 ee 3d 37 32 d0 bd
       -0.26640272 -0.0023755734 0.11667348 -0.10165828
000100 5d 48 8d be 0f fe 04 be 48 63 d5 bd 26 8e 6e 3e
       -0.2759427 -0.1298754 -0.10419327 0.23296413
000110 b3 6f 29 be b5 1b 1e be e8 fd 54 be ca f9 35 3e
       -0.16546516 -0.15440257 -0.20799983 0.17771068
000120 45 68 8c be ee 81 56 be 9c 94 3a bb 23 08 cd bd
       -0.274233 -0.20948002 -0.0028469926 -0.100113176
000130 d2 3e 16 be 87 cb 2a 3e 01 81 35 be 67 ee 09 3e
       -0.14672402 0.16679202 -0.17724992 0.1346985
000140 1a 5c 36 be 12 e4 90 3e 86 32 5c 3e 74 eb 6b 3c
       -0.17808571 0.28299004 0.21503648 0.014399398
000150 81 74 00 bd ed 97 21 3e a2 cc 7c 3e e1 42 fc bd
       -0.031361107 0.15780611 0.24687436 -0.12317444
000160 83 7f 42 3e cb eb 0f bc 16 a5 72 3e 57 f0 54 3e
       0.18993954 -0.008784245 0.23695788 0.20794807
000170 82 04 4b 3e 94 b0 f9 3d 09 d4 16 3e 4f df 86 3d
       0.19825938 0.12191883 0.14729322 0.065855615
000180 63 c9 10 3d fa 24 0a bd 38 6e 38 3e f3 0c 4a bd
       0.035348307 -0.03372667 0.18010795 -0.049328756
000190 61 58 63 be 1f 1a 1d be ee c5 5e be 7e 6c de bd
       -0.22201683 -0.15341996 -0.21755192 -0.10860537
0001a0 61 d3 83 3e f5 52 86 be f1 4a 37 3d 60 fe 20 3e
       0.25747207 -0.26235166 0.044749204 0.15722036
0001b0 75 2a f7 3d 88 07 78 3d 90 c5 25 3e 91 ec 12 be
       0.12068645 0.060554057 0.16188645 -0.14348055
0001c0 54 c0 2d be f3 87 49 be a4 a6 28 be 24 bc ca bd
       -0.16967899 -0.19680767 -0.16469818 -0.09899166
0001d0 21 cb dd 3c fd 19 3b be 55 7a f7 3c 91 2b 7e 3e
       0.027074398 -0.18271632 0.0302097 0.24821307
0001e0 1d a5 8e be b2 95 4e bd d4 ff a0 3d 57 62 78 bc
       -0.27860346 -0.05043573 0.07861295 -0.015160165
0001f0 7c c9 2d 3e 55 35 4f be ca 8b 2a 3e cb 6d 0a be
       0.16971391 -0.20235188 0.16654888 -0.13518445
000200 ca a4 23 3d 9e ae b1 be 18 89 4c 3e c7 56 8e 3d
       0.039952077 -0.34703535 0.19974172 0.06950145
000210 54 22 e1 3d f3 13 09 be 42 24 96 3e 24 11 9b 3e
       0.10992876 -0.13386516 0.29324538 0.30286515
000220 d4 db b0 be fe 47 c9 bc 7a 0b 83 3e 78 21 c1 bd
       -0.34542716 -0.024570461 0.25594693 -0.09430212
000230 a9 8e bb 3d f0 ff 9c be 97 28 07 3e ad ff e8 3c
       0.0915807 -0.30664015 0.13199078 0.028442228
000240 c5 a0 f4 bd d9 98 03 3e e5 f1 82 bd 6c 6c 41 3e
       -0.11944727 0.12851276 -0.06393794 0.18889016
000250 b4 3e 03 3e 3d ba 5e 3e 74 41 65 be e0 e2 0d 3e
       0.12816888 0.21750732 -0.2238825 0.13856077
000260 ad c9 63 3e a6 48 0b 3d 8d 95 d1 bd 26 9c d3 bd
       0.22244902 0.03400483 -0.10233603 -0.10332517
000270 45 0c 16 3e ee 4a 10 3e 63 d6 65 3e 8e b7 29 3e
       0.14653118 0.14091083 0.22445063 0.16573927
000280 56 c4 a8 3d 9a 8f 40 be 64 07 8f bd a5 7f 23 3e
       0.08240573 -0.1880478 -0.069838315 0.15966661
000290 7b be 91 3e 4b ce 6a 3e 92 b8 94 bd 31 ba 28 be
       0.28465638 0.22930257 -0.072617665 -0.16477276
0002a0 1c 96 57 3e d8 d9 99 bd fb b6 89 3d d9 b3 0e 3e
       0.21053356 -0.075122535 0.06724354 0.13935794
0002b0 b9 d6 20 be c2 bb 4b 3e 29 25 37 bc a4 63 c3 3c
       -0.1570691 0.19895843 -0.011178293 0.023851223
0002c0 e0 2d d8 3d a9 02 32 3e c9 f1 82 be 9e 90 65 be
       0.10555625 0.17383827 -0.25575092 -0.22418448
0002d0 94 41 81 3b 8f ec a6 3d 24 d7 00 be 79 9a 5c 3d
       0.003944585 0.08150589 -0.1258207 0.053858254
0002e0 31 bf 01 be 1d c7 fa bb 12 aa 6e be 3e 26 df bd
       -0.1267059 -0.0076531307 -0.23307064 -0.10895966
0002f0 a5 8d 51 3e 58 87 ea bd d3 e0 45 3e a3 c7 24 3e
       0.2046419 -0.11451596 0.19324045 0.1609178
000300 0f 54 24 3e a9 99 63 3e 2a 4c 0b be 90 ca e9 bd
       0.16047691 0.22226585 -0.13603273 -0.11415589
000310 94 71 96 3d 03 73 27 be bb 3c 88 be 8f 8f 94 bd
       0.07345882 -0.16352467 -0.26608834 -0.07253944
000320 b2 00 81 3e c5 59 64 be 23 3e 7d bc d6 0b 6e be
       0.25195843 -0.2229987 -0.015456709 -0.23246703
000330 8b 14 a0 3c d2 86 c3 bd da 8f 3b 3e a2 3d 73 bd
       0.019541046 -0.09547199 0.18316594 -0.05938495
000340 43 0b e1 3d 58 75 26 38 44 ef 10 be 35 49 63 bb
       0.10988476 3.968677e-05 -0.14153773 -0.0034681086
000350 78 5a 66 3e 4c 79 39 be 13 a1 af bc 39 62 3f 3d
       0.22495449 -0.18112677 -0.02143911 0.04672453
000360 a8 3a 19 3e 9c de 60 3d 5c 39 c5 bd d0 ee a0 3e
       0.14963782 0.054899797 -0.09630081 0.314322
000370 38 98 41 be 5d a1 42 be f6 59 63 be e3 e0 d9 3d
       -0.18905723 -0.19006868 -0.22202286 0.10638597
000380 ec 56 d3 bd 50 e4 88 3e b0 b4 8a 3c 8d a6 34 3c
       -0.103193134 0.2673669 0.016931862 0.011026037
000390 8e b8 00 bd 7f 76 3b be 28 97 0b be b8 ad b8 bd
       -0.031426005 -0.18306921 -0.1363188 -0.09017509
0003a0 12 b7 8b be 40 9b 83 3e 9d 91 79 3e cb 4a 41 bd
       -0.2728811 0.25704384 0.24371953 -0.04719047
0003b0 d6 6a 87 3e 17 99 5f 3e 19 81 39 3e 0a 0c 18 3e
       0.26448697 0.21835743 0.18115653 0.14848343
0003c0 0e b1 02 3e 83 30 19 3e f9 28 42 3d a0 e3 43 be
       0.12762854 0.14959912 0.047402356 -0.19129801
0003d0 d2 60 90 be 7d 39 36 be 3d 80 2c 3e 4a 69 45 be
       -0.28198868 -0.17795368 0.16845794 -0.19278446
0003e0 a8 96 84 3e a1 4d 3e be 00 e4 1e 3e 9a 5a d8 bd
       0.25896192 -0.185843 0.15516663 -0.10564156
0003f0 33 85 6a be ae 69 37 38 48 13 32 be 11 78 34 bd
       -0.22902374 4.3729022e-05 -0.17390168 -0.044059817
