model/MCNA_example.pth (torch, 180495 bytes, 52 tensors)

Block_1d_sensor_1.Scale_1.layer_1.BasicBlock_1d.conv1_1d.weight f4 [8, 1, 1, 3]
00000000: 9ffe b6be dc20 523e e9c2 e23e 0be9 8a3e
00000010: a6f1 653d c3e3 a63e c7aa a3be 497a 1c3f
00000020: 1677 75be 3aa5 e5bd 3266 4e3f fd87 bd3e
00000030: f640 a83e 6c21 2ebe feb0 b93d 013c d33e
00000040: 8a45 f9bc d044 fb3e 42ef 023f ade3 173e
00000050: 67f5 5c3e e526 09bf a265 b43e 876d 1a3f
-0.35741135 0.20520347 0.4428933 0.27130923 0.056138657 0.32595643 -0.3196623 0.6112409
-0.23971209 -0.11213155 0.8062469 0.37017813 0.3286206 -0.17004937 0.09066962 0.41256717
-0.030428667 0.49075937 0.5114633 0.14832945 0.21577989 -0.53574973 0.3523379 0.60323375

Block_1d_sensor_1.Scale_1.layer_1.BasicBlock_1d.conv2_1d.weight f4 [8, 8, 1, 3]
00000000: d091 2d3e f1df 873c 43a1 48bd 1002 48be
00000010: a562 513e 588f d7bd 3d7b 383e 163f 98be
00000020: 6017 043e db1c 7ebd a0eb e83b 0ad7 bb3b
00000030: 8054 8d3d f3f7 a93d 0d09 0f3e df46 413e
00000040: 7362 493d bdb1 51be 143b cebd bb38 74bd
00000050: 5218 d63d a7d2 2a3e a4da 6b3d e74b 6ebc
00000060: a74a aebd 1b60 47be d254 303e 26ce fabd
00000070: b7e4 e3ba 242d 133e bc9c 4c3d 1173 4f3e
00000080: da82 9cbe db8c 39be 7b1a 393e 1544 3bbe
00000090: 4c10 1f3d 5cbb 03be bc67 7a3e 559d b5bd
000000a0: 328b c43b 073b acbd 8a81 863e bc6e a13d
000000b0: ebdc 32be a5f3 4ebe f423 a0bd 80b0 893e
000000c0: 1aa4 2a3e e8ff 003e a032 70be 9db4 5b3d
000000d0: 2701 873c eeec 4f3e 2303 c73d cfd2 3b3e
000000e0: f224 4f3e f66d 0a3b 3730 a03e 9ab2 f23d
000000f0: 1d63 b73d eab6 dabd de33 babd 7fa8 563e
00000100: cdd8 4c3d a622 43bc 7166 463e 5eb2 c5bb
00000110: 7079 99bd 70f4 afbd 260a a73e ed2e 8fbe
00000120: aa02 803e 8139 ce3d 19f1 8d3e 3217 90ba
00000130: 2933 4c3e 81c7 febc 3896 193e 04c2 2bbe
00000140: 92ce 713c 02c7 a4bc fad3 963c 6873 f43d
00000150: ea3f 5b3d fbe2 5cbc 39d2 0c3d 2bb7 1dbd
00000160: 0a56 143e b7f4 4d3e f5c4 65bd b477 3cbc
00000170: f2aa 723e 9219 543e f291 573e d747 aa3e
00000180: e521 1ebe b762 d4bc 4a64 113d 9c6b 18be
00000190: 938f adbd 9755 a23c ae53 353e dbf7 53ba
000001a0: 45e4 833d cabd 44be 00b2 bf3c 0e58 fbbd
000001b0: ca6d b33d 6b48 fa3d 78fd 3ebe 4c01 993d
000001c0: 7577 6c3d 1a51 dfbc 572b 103e 593c 6c3d
000001d0: 6607 373e d2e0 cc3d 344d 7b3c 1600 963d
000001e0: 9df6 203e 88bc 33bd 03e8 8a3e fa51 a7bd
000001f0: 3210 353e bd79 0e3e b228 833c 5ac8 98bd
00000200: 42a3 60bd 6126 f23b 69f2 c73d dc72 603e
00000210: 9bfc 0e3d 28b4 16be ad55 27be b247 1d3d
00000220: 5ce5 bfbd 9055 283e 49a0 26be e414 0c3e
00000230: 9245 6bbd aa4f 983d 8777 c43b 75bc 943e
00000240: 8d81 a3bc f104 dc3c a075 4cbe 76e4 2a3d
00000250: bba7 13bd 0a27 0fbe 0ecc 30be 929f 38be
00000260: d345 ef3c b83f 0c3e 7e3e 12be 772f 303e
00000270: d9c2 213b c16e a5b9 3012 09be aaf6 1bbd
00000280: 97b3 09be 4504 11be 03c7 cd3d 77d6 a0bc
00000290: 06dd a6bc d8e6 b83c a45b d2bd 11f1 b3bd
000002a0: f475 4ebe 779e 713d 8cb6 a2be f96d e3bd
000002b0: ef4b 403d 9ce0 65bd ab64 263e 8dd2 583e
000002c0: 1ee9 763a 5a41 31be b39e 203c bbb4 e43d
000002d0: 96d1 dbbd 4137 693c 370c 18bd b5d6 f33d
000002e0: c0c4 41be 2f05 063e 6338 35be 3eff 0a3d
000002f0: e967 21be 4d11 78bc 56ba d53c 350e 13be
0.16950154 0.016586276 -0.048981916 -0.19532037 0.20447786 -0.105253875 0.18015762 -0.2973563
0.12899542 -0.062039237 0.007108167 0.0057324218 0.06900883 0.08299246 0.13968296 0.18874691
0.049166154 -0.20477958 -0.10069862 -0.059624415 0.104538575 0.1668192 0.05758156 -0.014544464
-0.085103326 -0.19470255 0.17219856 -0.12246351 -0.0017386888 0.14372689 0.04995416 0.20258738
-0.30568582 -0.18120138 0.18076508 -0.1828769 0.0388339 -0.1286444 0.24453634 -0.08867899
0.0059980387 -0.08409696 0.26270705 0.07882449 -0.17467086 -0.2021013 -0.078193575 0.2689247
0.16664162 0.1259762 -0.23456812 0.053639043 0.016480042 0.20305225 0.09717395 0.18342136
0.20228937 0.002112267 0.31286785 0.11850472 0.08954451 -0.10679419 -0.09091924 0.20962714
0.050011445 -0.011910116 0.19375016 -0.006033226 -0.074938655 -0.08591545 0.3262493 -0.2796549
0.25002033 0.10069562 0.27723005 -0.0010993241 0.19941391 -0.03110099 0.1499871 -0.1677323
0.014758723 -0.020114426 0.018411625 0.119360745 0.05352775 -0.013481851 0.03438017 -0.03850476
0.14485946 0.20112883 -0.056096036 -0.011503149 0.23698023 0.2071288 0.21051767 0.33257934
-0.15442617 -0.025925977 0.035496034 -0.148848 -0.0847465 0.019816203 0.17707703 -0.00080859446
0.06440023 -0.19213024 0.023400307 -0.122726545 0.08761175 0.12220844 -0.18651378 0.074709505
0.05773111 -0.027260352 0.14079033 0.05767474 0.17873916 0.100038186 0.015338231 0.07324235
0.15719076 -0.04388097 0.27130136 -0.08169933 0.1768196 0.13913627 0.016010616 -0.07460089
-0.054843195 0.007389829 0.09763033 0.21918815 0.034908872 -0.14717162 -0.16341276 0.038398452
-0.09369919 0.1643889 -0.16272081 0.13679844 -0.057439394 0.0743707 0.005995694 0.2905003
-0.019959236 0.026857825 -0.19966745 0.041721784 -0.036048632 -0.13979736 -0.1726534 -0.18029621
0.0292081 0.13696182 -0.14281651 0.17205606 0.0024682789 -0.0003155377 -0.13385844 -0.038077034
-0.13447414 -0.14161785 0.10047724 -0.019633515 -0.020369064 0.022571012 -0.10271385 -0.08786214
-0.20162183 0.058989014 -0.31779897 -0.1110496 0.046947416 -0.056122407 0.1624934 0.21174069
0.00094188924 -0.17310086 0.009803462 0.11167284 -0.10733335 0.014234365 -0.037121024 0.119061865
-0.1892271 0.13087915 -0.17697291 0.033934824 -0.15762295 -0.015140844 0.026089828 -0.14360888

Block_1d_sensor_1.Scale_1.layer_1.shortcut.0.weight f4 [8, 1, 1, 1]
00000000: 6aa3 f83d 4527 37bf 97e2 4f3f 73e0 243f
00000010: aef8 9ebe 3658 c0be adcd f3be fc3b 133e
0.12140544 -0.71544296 0.81205124 0.6440498 -0.31049103 -0.375673 -0.47617856 0.14378351

Block_1d_sensor_1.Scale_1.layer_3.BasicBlock_1d.conv1_1d.weight f4 [16, 8, 1, 3]
00000000: 1fa7 1d3e 8250 9cbb 6fa8 60be 7d90 313e
00000010: d9ea 403e cd48 a83c abd3 4abc e936 763e
00000020: c8f4 2f3e 569c 8b3c 8ffa fdbd de9f a0bc
00000030: ea55 863d 66e8 f5bd 88e9 d83c 7df0 503d
00000040: 3ac0 0fbd 0b4f 283d fc85 34bd 50da 5e3e
00000050: af94 333e 33b4 7d3d cf2b 4c3e f805 afbb
00000060: 2813 aebd 4018 36be ac89 9f3d c03e f63d
00000070: 3b3d 063d 8644 57bd 4385 81bd bfed 3fbe
00000080: af1b 913b fb79 ee3d e419 c4bd 2924 0f3e
00000090: bfcb 0abe 9393 393c 56d3 743b 3f57 8fbd
000000a0: 3fbd 683e b67e ecbd 6e14 b3bd a20f 3abe
000000b0: 5d01 4cbe 6993 5f3d c000 1b3e 214a 5f3d
000000c0: 303f 63be 3984 1dbe 67a7 a6bd d2dc c23d
000000d0: 8c13 2d3e 034d 43be a509 1cbe fb3c 633e
000000e0: 012d 843e 1a3a 1a3e 32b0 5c3e e314 8e3d
000000f0: 712b c9bc b96f 673c a00b 59be 4654 29be
00000100: 700d 1c3e 541e 603e 2225 293e d0c4 5dbe
00000110: 6b72 183e a7e6 333e 1d8f f43d b643 b1bc
00000120: da8e 2e3e 1d67 44be 2023 59bd 1eb8 133e
00000130: bdac 063c 8eed 45be 53c8 3dbe e895 dcbd
00000140: 3fe8 a3bd b1ab 1b3d 1880 e0bd f8dc 60bd
00000150: 7f27 16be d45f 203e 3364 00be d1cf 11bd
00000160: 8c38 4c3e d729 c83c c46b d53d 7080 ec3d
00000170: 36f9 debc 0e54 e43d 24c1 34be aeb8 e8bd
00000180: 5dbc 19be 545e 473e 13f5 5fbe bf24 05bd
00000190: a74e 53bc 9479 3abe cd9a 2e3e b432 833e
000001a0: 6667 253e 7bd2 34be 77b0 3abc 9473 51be
000001b0: 74bf dfbc 3b80 733d 4e3d a4bd 99aa 0a3e
000001c0: 3ef5 1bbe fa83 85ba f535 93bd 0443 4fbe
000001d0: e210 05bd b07e 7fbe f12c 403e 5deb 1fbe
000001e0: 5e99 c43d bfa1 e03d 53b5 c63d 29bf 55be
000001f0: 7d88 223e b2af b23d 5111 713e 134f 4d3e
00000200: 1b90 10be 7cad b53d e3dc 45be c274 07be
00000210: ca5a a03d a486 be3d e5f1 483e 59f7 26bd
00000220: 7463 823c 4ccd 883d 5017 143d a0cc a43d
00000230: a586 c93d 7113 ff3b dbcf f3bc bbdc ba3d
00000240: 0019 8bbd 1293 55be 2bce 80bd eb78 31be
00000250: 48e4 4e3e a8cb 493d 0c8f 17be d2a8 9a3d
00000260: 18b5 acbd 1a9a e13d dc85 33be 66a1 1d3e
00000270: 3ff9 843c e9b7 e7bd 31bb 07be 9202 b9bc
00000280: 7cb9 9ebb 51ab 6ebe f9c4 66be d92f 963d
00000290: 2ad7 0f3e 8f98 373e 57d7 a83c 88ba 043e
000002a0: 6bd3 c4bd 04c3 3f3e e927 71bd 6200 7fbd
000002b0: 386b 3e3e ec50 563e 0b59 60be 579e 42be
000002c0: 9e27 61bb 4f3f 98bb 6cf2 453e 75e6 013e
000002d0: 5615 f93d 3b4c bfbd c999 4b3e 02b2 95bd
000002e0: 7f19 0bbe 5585 e93d 6192 26be fb66 38bd
000002f0: dfa3 e03c 5eb5 22bc cb71 f33d ba2f 07be
00000300: 8ab5 35be 9d8b 88bd 628d b9bd 2133 ddbd
00000310: 9c89 2fbc 4441 ed3c 1dec 3dbe 5c40 dfbc
00000320: b55c 4abe 9338 a7bd d20e dc3d 46aa 2bbe
00000330: 01ef f0bd 8916 e43d a94d 103e d98e 0a3e
00000340: 9d5b 353c c621 013e d17c 8abd 5116 2ebe
00000350: 652c 893c e2a5 c8bd f59d e33d 5939 aabd
00000360: 38b7 03be eb8e 423d 6250 f3bd 46b3 513d
00000370: f933 0c3e 74b9 a6bd ffee b73d f016 14bd
00000380: 9374 adbc 62d4 3f3e 9b53 533e 2d6b 11be
00000390: e98c 8e3b c4cf d8bd bd8f 973c 303e 32bd
000003a0: 5f02 df3a 924e 8a3d 2127 51be 0a18 64bb
000003b0: 4d12 b2bc 00bb 1bbe 7199 fcbd 1e73 b8bd
000003c0: ecef 5f3e 08e6 1e3e 6c4c 37be 1577 1ebe
000003d0: c62e 80bd c094 debd 2520 943d 69c5 8fbd
000003e0: b243 d13c c5f1 783e a11f 073e 4159 10be
000003f0: ad55 9abd 8387 1fbd ce93 afba ad89 493d
0.15395783 -0.0047703395 -0.21939252 0.17340274 0.18839587 0.020542527 -0.012379567 0.24044384
0.1718322 0.01704232 -0.12401306 -0.01960748 0.065593556 -0.12007217 0.026478544 0.051010597
-0.03509543 0.041091006 -0.04407309 0.21762967 0.17537187 0.06193943 0.19938587 -0.0053412877
-0.084997475 -0.17782688 0.07789931 0.12023687 0.032773238 -0.052555583 -0.06324246 -0.18743037
0.004428349 0.1164436 -0.09575251 0.13978638 -0.13554285 0.011326688 0.0037357411 -0.06999063
0.22728442 -0.11547606 -0.08744131 -0.18170026 -0.19922395 0.05458394 0.15137005 0.054514054
-0.22192073 -0.1538247 -0.08137398 0.095147744 0.16901988 -0.19072346 -0.15238054 0.22191231
0.25815585 0.15061226 0.21551588 0.069375776 -0.024556847 0.014125758 -0.21195841 -0.16536054
0.15239501 0.2188657 0.16518071 -0.2165711 0.14887397 0.17568456 0.11941359 -0.021638732
0.17046681 -0.1917996 -0.053012013 0.14425704 0.008219895 -0.19328901 -0.18533449 -0.1077078
-0.08003282 0.038005535 -0.10961932 -0.054898232 -0.14663504 0.15661556 -0.12538223 -0.03559858
0.19943446 0.024434013 0.10420945 0.11547935 -0.027218442 0.11148845 -0.17651802 -0.1136335
-0.15013261 0.19469577 -0.21870832 -0.032505747 -0.01289717 -0.18210441 0.1705124 0.2562462
0.16152725 -0.17658417 -0.011394612 -0.20454246 -0.027312972 0.059448462 -0.080195054 0.1354164
-0.15230271 -0.0010186427 -0.07188026 -0.20240408 -0.032486804 -0.24950671 0.18767144 -0.15617128
0.09599565 0.109683506 0.097025536 -0.20873703 0.15872379 0.087249175 0.23541762 0.20049696
-0.14117472 0.0887098 -0.19322543 -0.13228133 0.07829817 0.093030244 0.19623525 -0.040763233
0.015916564 0.06679782 0.036155045 0.080468416 0.098401345 0.0077843 -0.0297622 0.09124132
-0.06791878 -0.20856884 -0.062893234 -0.17331283 0.2020427 0.049266487 -0.14800662 0.07551731
-0.084329784 0.11015721 -0.17531532 0.153936 0.016232131 -0.11314375 -0.13255002 -0.022584233
-0.004843889 -0.2330754 -0.22536077 0.07333345 0.14046922 0.1792929 0.020610495 0.12961781
-0.09610637 0.18726736 -0.058875952 -0.062256224 0.18595588 0.20929307 -0.21908967 -0.19005714
-0.003435589 -0.004646219 0.19330758 0.12685569 0.12162273 -0.09340712 0.19882883 -0.07309343
-0.13583945 0.11402384 -0.16266777 -0.045020085 0.02742189 -0.009930937 0.11886939 -0.132018
-0.17745033 -0.06667254 -0.0906017 -0.10800768 -0.010713961 0.028961785 -0.18547101 -0.027252369
-0.19761927 -0.081650876 0.10745014 -0.16764173 -0.117643364 0.11137111 0.14092125 0.13531055
0.011069206 0.1261054 -0.06762088 -0.170007 0.016744802 -0.09797265 0.11114112 -0.083117194
-0.12862861 0.04749958 -0.11880566 0.05119636 0.13691701 -0.08140841 0.08981132 -0.036154687
-0.021173751 0.18733361 0.20637362 -0.1420104 0.004350294 -0.10586503 0.018501157 -0.043516338
0.0017014256 0.06753267 -0.20425083 -0.0034804367 -0.021737242 -0.15208054 -0.12333954 -0.09006332
0.21868867 0.15517437 -0.17900246 -0.15475114 -0.06258921 -0.108682156 0.072326936 -0.07020075
0.025544975 0.24310978 0.13195659 -0.14096548 -0.075358726 -0.038947593 -0.001339549 0.049203563

Block_1d_sensor_1.Scale_1.layer_3.BasicBlock_1d.conv2_1d.weight f4 [16, 16, 1, 3]
00000000: d71e 233e 009a cb3b 6d03 45bd f792 ec3c
00000010: 4476 543d 0412 a0bd fe70 193e 2d6a 09be
00000020: 62f3 93bd b5b7 12be 16ff 31bd e02c 5abe
00000030: 46b6 833c c7fe 953d 0d4f 8e3e 156c 6c3d
00000040: b6dc 2cbc 34b5 2f3e 96c4 083c 771f 223e
00000050: e23f 593d 7e25 193e 9d21 f9bd bd86 2cbe
00000060: 96bc bcbd 2e07 adbd 18a6 823d 033f 5a3c
00000070: cace 4e3d b142 3b3e 0f07 d1bd 9940 a3bd
00000080: 19b9 c03d 555a 0b3e 91d2 d73d ebd7 1fbe
00000090: 8625 1abd 2b66 0bbe 8002 2fbd c0a3 773c
000000a0: 7a36 253d 419f f53d 049e 37bd 8003 313e
000000b0: aaee b0be f799 0c3e 087b d1bd 557a c3bd
000000c0: 6da3 c33c afff 98bd a93e 7dbc 7313 f83d
000000d0: 2a72 9e3b fcd3 273c c349 e13d 62df 32bc
000000e0: da39 d7bd f7e8 0d3e f34c 23be 843b 45be
000000f0: 596a b5bc 4744 953d 965d 213e d5e9 b93d
00000100: 3c72 4d3d 09cf 013e f70a e03d 3be6 a83c
00000110: 1642 12bd d8c1 82bd 146c 2dbe 4cdd e83c
00000120: 5662 103d 0e0e c33d 634a f83c 64bd 5bbd
00000130: 357d ed3d e0e1 e23d 76a9 08be 8e14 5fbd
00000140: 2e99 3c3e ecb0 51be 8de4 4dbd e3f3 01be
00000150: 459e e6bd db87 12be 485d 44be f8cc 2c3e
00000160: 039c 12be db03 4a3d 967d 1f3e 80d5 f0bd
00000170: 2a52 d4bd e890 c9bd c04a 933d 83ae e93c
00000180: dc70 1f3e ccad fdba 597b 15bc 3400 74be
00000190: 0de8 923d f95e 95bd 621c 1e3e 105b 84bd
000001a0: e7d7 fdbd 40cc a7bb 3700 263d 1afb f03c
000001b0: 7c4f 1d3e f17a f53d e4d6 6abd fc78 6f3c
000001c0: e9a9 b33d 380a 75bd b4ea 0bbe d18b f0bd
000001d0: 26f1 f03b 8776 943d 21da 8f3c 3b87 b83d
000001e0: 5514 41bd 00d1 323d 5f48 203e 9fa9 e73d
000001f0: 4f80 843d 5e61 7cbd 7eac 463d b204 0b3e
00000200: 0585 b6bd a787 893e 33d7 8abd 2a8d 6f3c
00000210: 8116 04be 2c7d 4f3a 8ec7 113d a632 1abe
00000220: e119 ee3d 880c 043d dd15 91bd 5fde 72bd
00000230: 6a6c c8bd 0844 c8bd a2af d63d 3a96 703d
00000240: 8a96 8e3d faad 9f3d 11bd ca3c f750 89bd
00000250: 081a 9a3d d942 4d3c d534 36be 72d9 fd3d
00000260: afe5 39bd 8743 b13d 74d1 853d 3029 9fbc
00000270: 821d 80bd 8e92 8abd 2844 afbc 218a a63d
00000280: d1d3 353d 6f04 9cbc 7862 8cbc 0e77 4dbe
00000290: 5b8a 18be 50df 5b3d 46a8 54bd a2fc 073e
000002a0: 0a27 83bd 7bfd 1abe b4ce aebd 1619 423d
000002b0: 5e39 0ebb c183 d43d a50b 223e c866 163c
000002c0: 033f 89bd aa5b aabd f20c f6bd d6b4 dd3d
000002d0: 38db 17be 96e5 023d 0976 1b3e 5ef2 003e
000002e0: c10b 063d 53d8 8abe b73a 96bd 8a3d f33c
000002f0: 2d6c 25be d7e0 dcba 1097 7fbd de7b 853d
00000300: 43d8 423d 4c44 143e 21c9 e33d 9a5c 063f
00000310: 62b9 ffbd 106e d43c f77a 84be 44b2 bcbd
00000320: fe54 a83d 1ae0 5b3e 8ff1 f5bc 78ed 85bd
00000330: 61bb 9bbd ccc7 873d 0420 f1bd b757 763d
00000340: b839 cf3d d9ea 423e 65b4 a7bd a073 03bd
00000350: 7f66 0e3e 84bc 16be 9206 a23c 629a 70bb
00000360: ddae c73c 3b47 29bd b0e5 11be 7655 0fbe
00000370: 1c6d 4cbd fa0a 9dbd ee36 82bd dc93 b13d
00000380: 50e2 5c3d fe74 d93d 533a 063e 7cbe bfbc
00000390: 20fa c0bb 2818 043e e78e 07be e204 c53d
000003a0: 424b 83bc b5e8 da3d c64f dbbd ad47 f2bd
000003b0: eceb 5b3b 60f4 c1bd 3ba1 503d e361 0abe
000003c0: 6795 cebd 0976 24be 05c9 073d ae08 563e
000003d0: 7d7f 8cbc 4867 823d d509 bd3d 72a1 4c3b
000003e0: 2bed efbd 0b6f 9f3d 3d4b 5c3c eb9a 08be
000003f0: 7a7e 5abe 9ea1 b23d be54 8a3b 56c2 f3bd
0.15929733 0.0062134266 -0.04809897 0.028878672 0.0518706 -0.07815936 0.1498451 -0.13419409
-0.07224156 -0.14327891 -0.04345616 -0.21306181 0.016078126 0.073239855 0.27794686 0.057720263
-0.010550668 0.17158967 0.008347651 0.15832315 0.05303944 0.14955708 -0.12164614 -0.16848274
-0.092156574 -0.08448635 0.06379336 0.013320687 0.05049018 0.1828716 -0.102064244 -0.079713054
0.094103046 0.13608678 0.10538209 -0.1560971 -0.03763344 -0.13613193 -0.042726994 0.015114725
0.040335156 0.11993266 -0.04482843 0.17286491 -0.34557086 0.13730608 -0.102285445 -0.09544817
0.023881638 -0.07470643 -0.015456834 0.12113085 0.0048353868 0.010243412 0.11000397 -0.010917516
-0.10509081 0.138584 -0.15947323 -0.19260985 -0.022145437 0.072884135 0.15758356 0.09077803
0.05015777 0.12676634 0.109395914 0.020617595 -0.035707556 -0.06384629 -0.1693576 0.028425835
0.03525003 0.09524165 0.030308908 -0.053647414 0.11596147 0.110782385 -0.13345894 -0.05446296
0.18417808 -0.20477647 -0.05026679 -0.12690692 -0.11260656 -0.14309637 -0.19176209 0.16875064
-0.14317326 0.049320083 0.15575251 -0.11759472 -0.10367234 -0.09842092 0.07191992 0.028525596
0.15570396 -0.0019354164 -0.009123647 -0.23828202 0.071731664 -0.07293505 0.15440515 -0.06462681
-0.12394696 -0.005120784 0.04052755 0.02941661 0.15362352 0.1198634 -0.057333842 0.014616247
0.08772642 -0.0598242 -0.13663751 -0.11745418 0.007352966 0.0724917 0.017560067 0.09010168
-0.04713853 0.04365635 0.15652607 0.113116495 0.064697854 -0.061616294 0.048504345 0.1357601
-0.0891209 0.26861307 -0.06779327 0.0146210585 -0.1289921 0.00079150754 0.0355907 -0.15058383
0.1162603 0.032238513 -0.07084248 -0.0592941 -0.09786303 -0.09778601 0.10482718 0.058737017
0.06962307 0.07796855 0.024748357 -0.06704896 0.07524496 0.012528145 -0.17793591 0.1239499
-0.04538506 0.08655458 0.06534091 -0.01942882 -0.06255628 -0.06766234 -0.021394804 0.08131815
0.044391457 -0.019045083 -0.017136797 -0.20064947 -0.14896528 0.053679764 -0.05191829 0.13279966
-0.064039305 -0.15135758 -0.08535519 0.047387205 -0.0021701674 0.103766926 0.15824755 0.009179778
-0.06701472 -0.08318265 -0.12014188 0.10825507 -0.14829719 0.03195723 0.15181746 0.12592456
0.032726053 -0.27118167 -0.07335418 0.02969243 -0.16154547 -0.0016851675 -0.062399924 0.065177664
0.047569524 0.14479178 0.11122347 0.5248505 -0.12486531 0.025931388 -0.25875065 -0.09213689
0.08219336 0.21472207 -0.03002241 -0.06539434 -0.07604099 0.06629905 -0.117736846 0.060142245
0.10118431 0.190349 -0.081887044 -0.03209269 0.13906287 -0.1472035 0.019778524 -0.0036713113
0.024375373 -0.041327696 -0.14247775 -0.13997445 -0.049908742 -0.07668109 -0.06358133 0.0867078
0.053926766 0.106180176 0.13108186 -0.02340626 -0.005889192 0.1289984 -0.13238107 0.09620072
-0.016027097 0.106889166 -0.10708575 -0.11830077 0.0033557368 -0.09470439 0.05093501 -0.13513903
-0.1008709 -0.16060652 0.03315069 0.20901749 -0.017150635 0.063673556 0.09230391 0.0031224159
-0.11715158 0.07784852 0.013445673 -0.13340347 -0.2133731 0.08722232 0.004221528 -0.11902301

Block_1d_sensor_1.Scale_1.layer_3.shortcut.0.weight f4 [16, 8, 1, 1]
00000000: 2b63 37be 26d0 493e e019 373e 569f 79be
00000010: b286 01be 2344 8e3e d152 873e 9772 73be
00000020: 9916 dd3d f871 22be e72d 603e a65f 1cbd
00000030: aab0 dfbc 916b 8d3e 2217 3ebe 00d8 75be
00000040: 1d24 963e 0ad4 46bd afac 90be 8cb7 13bd
00000050: 52ef a5be 7bea 9dbe ab26 1dbe 43b7 c2bd
00000060: af64 f9bc 13b6 b1be a6bd c6bd a951 433e
00000070: fd05 afbe 68af 9c3e 4506 af3d 0fe5 97be
00000080: 07e4 61be 1766 653d 96ce 9b3e 24c5 9b3e
00000090: bdb1 30be ac2d 8dbe 734e d03d 12a7 873e
000000a0: 194b 733e 9c79 ca3b ced1 ab3e 4291 ac3e
000000b0: 604d 62be 0dd2 813c aca3 2a3e 6c89 70be
000000c0: 9a2b 97be eddf d43e 7904 ae3e 8a83 aabe
000000d0: d020 f3bd e2e9 3a3c a38c 843d 62f7 c93e
000000e0: 7894 9cbe 2171 5abe 0b84 c23d e62c c9bb
000000f0: 9600 9e3e 449b af3d e06a a4be 5af7 2d3e
00000100: 72f5 2d3e 69de 9a3e 4d7e f43d f26d e5bd
00000110: 6ab1 a83d 260b 713e cf6f fabd 50f2 b6bd
00000120: fc3c b83e 5b92 943e 2391 a83e af02 323e
00000130: 535a 5e3e 183d 7bbe bcf8 b2bd 798f ae3d
00000140: a39f 29be 286f 923e 83c5 793e 287a 5dbb
00000150: 0ce8 89be a2ee b0be 803e 953e ebce 803e
00000160: 6dfb 03be f4a5 163e eb7e 83be 3252 583d
00000170: fe09 91be fec6 36be bc60 883e f2a3 323e
00000180: e9c6 27be 452f 243b 657d a1be 469d a03e
00000190: 5c79 a43e 666e 963e 6e52 70be 5922 8dbd
000001a0: 02b1 3ebd 071c 81be 46a2 893e 6c3c 123e
000001b0: 09e0 4bbe 33fe 1bbe 4a3b d13d 7458 91be
000001c0: 72ca ce3e 6a79 573e a966 ae3e 049c 9f3e
000001d0: 9249 19be 9b7e c13e ee5b a43e 0389 6bbe
000001e0: 7559 79be 1867 6b3e f0c1 433e 00c0 6fbe
000001f0: 3e13 d5bd b853 8d3d e938 6d3e fa88 09be
-0.17908923 0.19708309 0.17880964 -0.24377188 -0.12649038 0.2778636 0.2643037 -0.23774181
0.10795326 -0.15863788 0.2189251 -0.038177155 -0.02730592 0.2762113 -0.18563512 -0.24008179
0.29324427 -0.04854206 -0.28256747 -0.036063716 -0.3240915 -0.30842957 -0.15346782 -0.09507611
-0.030443517 -0.34709224 -0.09704141 0.1907412 -0.34184256 0.30602574 0.08546118 -0.29666945
-0.22059642 0.056005564 0.3043105 0.30423844 -0.17255302 -0.27573907 0.10171213 0.26494652
0.23759116 0.0061790477 0.33558506 0.33704573 -0.22099829 0.01584723 0.16663998 -0.23489922
-0.29525453 0.41577092 0.33987787 -0.3330348 -0.11871493 0.011408301 0.06472137 0.3944655
-0.30582023 -0.21332218 0.094978414 -0.0061393855 0.30859822 0.085745364 -0.3211279 0.16988888
0.16988161 0.3024781 0.119381525 -0.11202611 0.08236964 0.23539409 -0.12228357 -0.08932936
0.35984027 0.2901791 0.3292323 0.17383836 0.21714143 -0.24535024 -0.087388486 0.08523459
-0.16564803 0.2860043 0.24391751 -0.0033794735 -0.2693485 -0.34557062 0.29149246 0.25157866
-0.1288888 0.14711744 -0.25682768 0.052812763 -0.28327936 -0.17849347 0.26636302 0.17445353
-0.16384472 0.002505259 -0.3154098 0.3136999 0.3212384 0.29381102 -0.23468944 -0.06891317
-0.046555527 -0.25216696 0.26881617 0.14280862 -0.19909681 -0.15233688 0.102163866 -0.28387797
0.4038883 0.2104241 0.34062698 0.31173718 -0.14969471 0.37791905 0.32101387 -0.23001485
-0.24350531 0.22988546 0.1911695 -0.23413086 -0.10404061 0.06900734 0.23166241 -0.13431159

Block_1d_sensor_1.Scale_1.layer_5.BasicBlock_1d.conv1_1d.weight f4 [32, 16, 1, 3]
00000000: b0c1 6ebc 6c61 183d e321 c3bd 24f6 febd
00000010: b1da cabd a0bb 19bd ceca ab3d 8eb9 2bbd
00000020: 0a90 8d3d cdbd 0bbe b8f9 c8bc f897 b43d
00000030: 50f8 8abc 2af8 3fbe e068 ec3c 0810 273d
00000040: bde3 273e 1038 e63d c802 e13c 184b 5bbd
00000050: 4256 c5bd 0808 bebc 26cc 55bd 6078 953b
00000060: 0cab 063e d338 d8bc f5c0 86bd 5844 9a3c
00000070: 670b 76bc 0015 1cba 1c96 663d dd7e ba3d
00000080: 3041 583c 601b b93d 1014 1cbd 8ad8 013e
00000090: 0c00 c93d 1f8a 543e 2a98 bcbd 949f 78bd
000000a0: d9d1 803d 48ab ea3d d8bd b23d 7de9 bb3d
000000b0: 67a6 d7bd 8cb7 df3d e69e af3d efe1 ccbd
000000c0: 8eca 46bd 71c6 bdbd da1f cd3d 8c88 e7bd
000000d0: cca9 02be 4ad1 b23d a87d b03d 0bbf 4d3d
000000e0: e731 01be 2a8c 9d3d 19d3 82bd c002 1d3c
000000f0: 01d0 85bd e56b 943d 6ebd 1cbd da2b c7bd
00000100: b220 93bd 9e73 9d3d fce8 eb3d b3fe be3d
00000110: 5a37 0a3e 5844 9c3d f51c 6e3d 0c00 72bd
00000120: 60c7 893b b14a 133d 22f2 3fbd e436 d8bc
00000130: 9188 ea3d 1eaa 09be 62e2 20bd 86fb 103e
00000140: 48df 28bd 5d9d 98bd 0919 993d 3072 b83d
00000150: 009c a53b c521 4abd a488 a0bd 4af5 0e3e
00000160: 2d85 e13d 0cd3 a1bd 83e2 e4bd 098e 173c
00000170: 724f debd 9835 813c 55b3 37bd c898 643d
00000180: 2611 113e 3961 96bc d46f 343d f01d 22bc
00000190: 38c7 8d3d 2872 803c 2282 083e d030 403e
000001a0: a84a 01be 8e2a c53d 2ee2 c23d c840 063e
000001b0: 40cc dfbb 666d 5cbd 2093 a4bd d097 0a3d
000001c0: 54b6 18be b40f 513d d490 d93d 5e8f 86bc
000001d0: 0074 b9bd c877 4cbd 40a6 febd 0476 1c3d
000001e0: aceb c2bd 8095 01bd c783 05be de6c 49bd
000001f0: 5147 2d3e 28f0 043d 7c39 ce3d a6b7 383d
00000200: 186a d43c 3414 f23d ac9a 33be 840e acbc
00000210: b4dc edbc 9ce3 003d dcd6 e9bd a651 40bd
00000220: 0613 d63b 12bd 20bd 6cac be3d f1c5 91bd
00000230: 4460 963d c08c b9bb 1a07 22be f4e5 c23d
00000240: 0270 a5bd 25dc 2a3e 2028 4c3c ac6e ab3d
00000250: 82f4 00be 2691 c9bd 98b4 103e af6c 20bd
00000260: d02e 02bc 00d0 7e3b 1922 02be 433c febd
00000270: 3cd5 823d 8d6c f63d a811 09bd a8b5 e4bd
00000280: 3570 7a3d d024 373c 744c e4bd db88 933c
00000290: b013 863c f471 a2bd ef62 8e3d b6c4 d4bd
000002a0: e49c d23d fe35 0bbd 169b a0bd 7c23 f73d
000002b0: db76 5c3e 1a27 f3bd 60b5 003e 84dd 1a3e
000002c0: 2ce5 a33d b400 cabd 8620 4fbc cca3 dabd
000002d0: f853 08be 0025 2cbe 9089 b63c 20c1 f0bd
000002e0: 7cd9 b03d 08ea eabd 141e 7d3d f531 443d
000002f0: b4d4 6a3d 180d e1bc 03a7 d53d 3818 c13d
00000300: 545b a53d 173c a6bd 74b0 6c3d b5b8 0bbe
00000310: 2766 603e ec0f 57bd 8c18 d8bd f70f 75be
00000320: 78c8 163d 1ac0 013e a063 f33d 6ee8 113e
00000330: ec41 083e e48c 05be e8a0 413d f83f e13d
00000340: 2c3c 6bbc b4f3 883d 888b 07be a443 84bd
00000350: 6866 a73c b71f 94bd 1b75 9c3c 303d db3c
00000360: 88a2 313d 5731 35be dd8f ddbd bebf 003e
00000370: 610c fb3c 900d 173d a839 2a3d 57e5 15be
00000380: b826 2ebd 000d a23d 378a eebd 107d 693c
00000390: df2a 90bd 3657 953c 661e 993d a0f8 50bc
000003a0: 0359 d13d 0d9c b7bd 8091 f8bb d52c 203e
000003b0: d693 4dbd dd0d e0bd 2cf3 173e 6848 be3d
000003c0: 4233 b1bd 7d3a 39bc f7e9 82bd 4084 d6bc
000003d0: 7f03 8a3d d0ec ce3d 96a3 d5bd 8f5d cdbd
000003e0: 00c8 f53c 68ee 5a3d 9720 1d3e 4148 8ebd
000003f0: 085e fa3c a60e 3dbe 4882 833c 88af c7bc
-0.014572546 0.037202284 -0.09527948 -0.12449291 -0.09904993 -0.03753245 0.08388291 -0.041925006
0.06912239 -0.13646622 -0.024533138 0.08818048 -0.016964108 -0.18747011 0.028858602 0.040786773
0.16395469 0.11241162 0.027467147 -0.05353841 -0.09635593 -0.023197189 -0.052196644 0.004561469
0.13151187 -0.026394283 -0.065797724 0.018831417 -0.015017367 -0.0005954057 0.0562955 0.091062285
0.013199136 0.090384245 -0.03810507 0.1268026 0.09814462 0.20755814 -0.092087105 -0.06069906
0.06290025 0.114584506 0.08727616 0.09175394 -0.105297856 0.10923681 0.08575229 -0.10004031
-0.048533015 -0.09266365 0.10015841 -0.11305341 -0.12760085 0.08731325 0.08617717 0.05023102
-0.12616692 0.0769275 -0.0638792 0.009583175 -0.06533814 0.07247142 -0.03826659 -0.09725161
-0.071839705 0.07688068 0.115190476 0.09325924 0.13497677 0.07630223 0.058133084 -0.059082076
0.0042046756 0.035959903 -0.046861775 -0.026393361 0.11451829 -0.13443801 -0.039278395 0.14158449
-0.041228563 -0.0745189 0.07475478 0.090061545 0.005053997 -0.04934861 -0.07838562 0.13960758
0.110117294 -0.07901582 -0.11176016 0.009250172 -0.10854997 0.015772626 -0.04484876 0.055809766
0.14166698 -0.018356906 0.04405196 -0.009894833 0.069227636 0.015679434 0.13330892 0.1876862
-0.12626135 0.09627257 0.095157966 0.1311065 -0.0068297684 -0.053815268 -0.08035874 0.033836186
-0.14913303 0.051040366 0.10623327 -0.016425785 -0.09055328 -0.04991892 -0.124340534 0.038198486
-0.09517607 -0.031636715 -0.1303855 -0.04917609 0.16921736 0.032455593 0.10069558 0.045097016
0.025929496 0.1182026 -0.17539471 -0.021003015 -0.029035904 0.031467065 -0.11417934 -0.046952866
0.0065330295 -0.03924281 0.093102306 -0.071178325 0.0734258 -0.0056625307 -0.15823022 0.09516516
-0.080780044 0.16685541 0.012460738 0.08370718 -0.12593272 -0.09842138 0.14131391 -0.03916615
-0.007945731 0.0038881302 -0.1270832 -0.12413838 0.063883275 0.12032423 -0.033464104 -0.11167461
0.061142165 0.01117821 -0.11147395 0.018009594 0.01636681 -0.07931891 0.06952464 -0.10389082
0.10283831 -0.033987038 -0.0784208 0.12067315 0.21529715 -0.118726924 0.12569189 0.15123564
0.080026954 -0.09863415 -0.012642032 -0.10675773 -0.13313282 -0.1681099 0.022282392 -0.11755586
0.08635232 -0.11470419 0.061796263 0.047899205 0.057331756 -0.027472064 0.104322456 0.094284475
0.0807406 -0.0811693 0.057785466 -0.13644679 0.21913968 -0.05250542 -0.10551557 -0.23931871
0.036812276 0.12670937 0.11884236 0.14248821 0.13306397 -0.13042027 0.047272593 0.10998529
-0.014357608 0.06687108 -0.1323682 -0.06458214 0.020434573 -0.072326116 0.019098809 0.026762575
0.043367893 -0.17694603 -0.10818455 0.12573144 0.030645551 0.03687817 0.04155889 -0.14638267
-0.042517394 0.07912636 -0.11647456 0.014251009 -0.07039427 0.018230062 0.07476501 -0.012754589
0.10222056 -0.08965311 -0.0075857043 0.15642102 -0.050189815 -0.10940144 0.14838856 0.09291154
-0.08652355 -0.011305449 -0.063922815 -0.026186109 0.06738948 0.10103762 -0.10431592 -0.100276105
0.030002594 0.05345002 0.15344463 -0.06947375 0.030562416 -0.18462619 0.016053334 -0.024375692

Block_1d_sensor_1.Scale_1.layer_5.BasicBlock_1d.conv2_1d.weight f4 [32, 32, 1, 3]
00000000: ca0a 4fbd fcc8 0abe 7da1 cfbd f2cc af3d
00000010: 0ec8 56bd 205e 97bd 74e2 8cbd 66ed fc3d
00000020: 4161 76bd c6ff 95bd 79d7 a73d 6a6f 9dbd
00000030: b0b7 e53b 3440 afbd 9c6d 7a3d 0c4f 133d
00000040: 26b9 43be 2a5a ca3d 667b b93d 0f78 93bd
00000050: b051 da3b f0aa 253d d18d 133d e2ad 803d
00000060: 58b1 f63c bfc9 e53c 9a4a 94bd 5659 c23d
00000070: 190b 29bd c892 28bd 4ef0 92bd bfb4 b43d
00000080: 1ca0 7f3d 58f5 38bc 7d59 4f3d 600b 5c3c
00000090: 6287 b63d 4143 393d 60d6 e23b 2443 c03d
000000a0: 647d 033e a010 003d e450 b2bd a4f7 11bd
000000b0: fbca c5bd 9064 afbb 6583 e53d 0620 ce3d
000000c0: 00fd a2b9 6010 72bd b075 673d 0e10 ad3d
000000d0: d4cd 3dbe 48d0 9ebc 68bb f9bc 620b 7b3c
000000e0: c879 343d 0008 ef39 0c05 b5bd d835 4c3c
000000f0: b077 cdbd 26a4 4fbc f751 61bd ac5c 9cbc
00000100: 44c2 4a3c 90c1 ad3d b02a a23d e903 e93c
00000110: 1b36 bdbd 9087 c03d 9e9a 8c3d a8da 243c
00000120: 2834 c83d 03c4 d33d 8004 123b d826 a1bc
00000130: c498 bdbc 0a65 06bd 1c54 c0bd 8d97 ad3d
00000140: 523c 1bbd d089 b6bb 3da5 4e3d 04a8 a13d
00000150: 68d9 94bd 78d9 78bd b89f b9bc 72c0 9bbd
00000160: 105b dfbd b2b3 94bd 9043 80bc 081d ec3d
00000170: 0086 463d a6f1 943d 95d2 243d 0872 c8bc
00000180: 3c96 93bd 3dce 393d 9874 3c3d 58dd fabc
00000190: b997 eb3c 5073 623d d0e0 20bd dab1 87bb
000001a0: bb44 27bd 4041 1fbb 38fc 013e 08a0 d83c
000001b0: d0e4 ee3c 9379 863d 1047 44bc 5261 d03d
000001c0: c7d6 6c3e b06f 033c 2387 b0bd 63a9 a7bc
000001d0: d0a8 803d 07f1 2bbd 5700 67bd 04c2 873d
000001e0: 3e89 853d ebc0 98bc e479 a53c a038 c53d
000001f0: 722d 0a3e 303b 1abd 363b 973d 80d5 233d
00000200: 3081 533d 8450 643d a254 013c 22f0 cbbd
00000210: b4d5 1bbd 63ac 83bc 7a5f c63d 7095 42bc
00000220: aaf8 0fbd 8ccf a63d 58b8 bfbc 11b9 9e3c
00000230: acdb ae3d c636 803d 601c e53d 16b8 bebd
00000240: 1851 b4bd 484d 363d 04d9 92bc 93e1 c2bd
00000250: 9b4c 1b3e 10f8 6abc 7752 b5bd 040e 743d
00000260: 8435 cfbc 1aba 88bd e702 e2bd 8027 063a
00000270: 4873 c13d 2d88 2a3d 5bf9 70bd 3884 c53c
00000280: 1292 88bd f635 83bd f235 a83d 2b13 6abe
00000290: d1d5 6abd f07d 203d a0b4 35bc e089 cf3d
000002a0: 04f3 2e3d 09e0 3fbe 7022 26bc 084a 753d
000002b0: e003 dbbc 189d 593c ef25 b3bd 09c0 303d
000002c0: faa8 d03d 188b 07bd 5aef cebd 2d58 66bd
000002d0: ecee 223d 2999 313d 72ff 9b3d b812 2f3c
000002e0: 006e 213d 88de f73c 1e78 a93d 936a 23bc
000002f0: 5650 9c3d b2cc c83d cd10 1ebd d816 98bc
00000300: a0d0 9d3d 1b58 df3d dc2e 4e3d dc88 813d
00000310: ecaa e6bd 90ae 393d 81ac 90bd 1727 04bd
00000320: e032 01bd 704f a4bd 3b0e c5bd aa7e 91bd
00000330: 88b9 c1bd e358 143e f818 413d 60db a0bb
00000340: d3f9 da3e b4b3 423d 0cda 8abd 0265 3cbd
00000350: 6877 483d 50d8 9d3d 953d c03c acdb 9bbd
00000360: 009a 16bc 741e 9c3c 1e4e c43d 00a2 b0ba
00000370: f400 2c3e 00d0 343b 40b2 4cbc 55f6 16be
00000380: 76e7 57bd b89a 973c e1b5 203e 6836 853d
00000390: 9c46 863c 7199 b0bd a878 b4bd d409 70bd
000003a0: 1ca5 913d 90c4 8abb ecda 3c3d 9fa2 9ebd
000003b0: c132 63bd d8f4 433d 7182 2fbd cccb 0cbd
000003c0: b9e0 a6bd a5b6 d63d a0a8 b5bd e4ec c63d
000003d0: 977c 143e 8488 88bd d0dd 463d 3edf d1bd
000003e0: e845 ac3d f88c 9e3d 38b2 233c dc7e d4bc
000003f0: d217 b13d 1d69 6fbd 802e 253a ec0d 6e3d
-0.0505474 -0.13553232 -0.10138223 0.08584012 -0.05243688 -0.07391 -0.0687913 0.12349968
-0.060151342 -0.073241755 0.08195395 -0.07687266 0.0070104226 -0.08557168 0.061139688 0.035964057
-0.19113597 0.09880479 0.090567395 -0.07200634 0.00666257 0.04044622 0.03602392 0.062831655
0.030113861 0.028050302 -0.072407916 0.09489696 -0.04127035 -0.041155607 -0.07174741 0.08823537
0.06240855 -0.011288963 0.050622452 0.013430446 0.08912541 0.045230154 0.006922528 0.09387806
0.12840801 0.031265855 -0.08706835 -0.03563656 -0.09657856 -0.005352564 0.11206702 0.10064702
-0.00031087548 -0.059097648 0.05650872 0.08450328 -0.18535548 -0.019386426 -0.03048487 0.015322538
0.044061452 0.00045591593 -0.08838853 0.012464009 -0.10032594 -0.012673413 -0.05500981 -0.019087158
0.012375418 0.08484185 0.07918298 0.028444247 -0.092388354 0.094008565 0.068654284 0.010061897
0.09775573 0.10340121 0.0022280514 -0.019671842 -0.023144133 -0.032811202 -0.093910426 0.08476172
-0.037899323 -0.0055706277 0.050450552 0.078933746 -0.072680295 -0.06075427 -0.022659168 -0.076050654
-0.10906041 -0.07260837 -0.015657216 0.11528975 0.048467636 0.07272653 0.04023989 -0.024468437
-0.07206389 0.0453627 0.04600963 -0.030623123 0.02875887 0.05528575 -0.039276898 -0.0041410746
-0.04083703 -0.0024300367 0.1269387 0.026443496 0.02916184 0.06566157 -0.011979833 0.101748124
0.23128806 0.008022234 -0.08619525 -0.020466512 0.062821984 -0.04197791 -0.05639681 0.066288024
0.065203175 -0.018646678 0.020199724 0.09629941 0.13493899 -0.0376541 0.073843405 0.03999853
0.051636875 0.05574085 0.007893713 -0.09957911 -0.0380456 -0.016073411 0.096861795 -0.011876449
-0.035149254 0.08145055 -0.023403332 0.019375356 0.08537993 0.06260447 0.11187053 -0.09312455
-0.0880453 0.044507295 -0.017925747 -0.09515681 0.15165941 -0.014341369 -0.088536195 0.05958368
-0.025294073 -0.06676121 -0.1103571 0.00051175803 0.09445816 0.041633774 -0.058831554 0.024110898
-0.06668486 -0.064067766 0.08213414 -0.22858874 -0.057332817 0.039182603 -0.011090428 0.101337194
0.042712227 -0.18737806 -0.0101400465 0.059885055 -0.026735246 0.013282083 -0.0874747 0.04315189
0.1018848 -0.033091635 -0.101042464 -0.056236435 0.039778635 0.043358956 0.07617082 0.010685615
0.039411545 0.030257478 0.08274864 -0.00997414 0.0763251 0.098046675 -0.03859024 -0.01856558
0.07705808 0.10905477 0.050337657 0.06324932 -0.112630695 0.04533249 -0.070641525 -0.03226384
-0.03154266 -0.08022964 -0.09621855 -0.071042374 -0.094592154 0.14487033 0.047142953 -0.004908964
0.42768726 0.04753466 -0.067798704 -0.045994766 0.048942 0.07707274 0.023466865 -0.076102585
-0.00919199 0.01905749 0.09585212 -0.0013476014 0.16797239 0.0027589798 -0.01249367 -0.14742406
-0.052710973 0.018506393 0.15694381 0.06504518 0.016391091 -0.086230166 -0.08812076 -0.058603123
0.0711157 -0.004234858 0.046107218 -0.07745861 -0.055468325 0.047840923 -0.042849008 -0.034374043
-0.08148331 0.104840554 -0.08870053 0.09713152 0.14500652 -0.06666663 0.04855138 -0.10247658
0.08411771 0.077417314 0.009991221 -0.025939398 0.086471215 -0.058449853 0.00063011795 0.058118746

Block_1d_sensor_1.Scale_1.layer_5.shortcut.0.weight f4 [32, 16, 1, 1]
00000000: feb1 5fbe bc77 533c a60a 393e 4eb3 ddbb
00000010: 2019 8c3e c3e8 84be a5c3 c3b8 dc5e debd
00000020: 89ec ad3d 4d9d be3d 7b0b 183e d47f fabd
00000030: 9e8f 463e 72a8 babd 6288 493e 4b91 dabb
00000040: 32c0 10be 780f 753e 6259 85bd 6d16 1cbc
00000050: d1ae 7cbd df3b 22be f6df 94be 91a3 273d
00000060: c26d 253d db05 38bd 97ca 21be ea05 8b3d
00000070: bb88 1ebd f705 503d fd2d 6abd d8fb 643e
00000080: 0e72 18be d651 9e3e 3491 54be 420e 883e
00000090: b489 25be 0054 223e 6dd3 86be 5eab c23d
000000a0: 195c 0ebc f310 5c3e 4cb0 243e fdc4 8d3d
000000b0: 07d4 59ba 3c35 46be 35db 32be 9664 483e
000000c0: a065 223e 5a65 19bd 2886 9e3e 1abb 81be
000000d0: 3c1a b23d 615f 7ebe 1df2 1e3e 1409 2d3e
000000e0: 6673 133e 1927 7c3e 664b 2f3e 83a8 93bd
000000f0: 85ac 93be b900 3d3e 0b05 25bd 59d2 0d3e
00000100: 5b58 69be 7c20 7c3d 7250 013c efd9 4dbc
00000110: 6e99 5b3e 7962 7dbe 8a02 3bbe 761d 633e
00000120: c884 08be b369 c7bd 25dd d53d faf1 eebd
00000130: 13ee 1abe a8a0 653b 935d 4fbe b73a 193e
00000140: 17b2 ce3c 9dbf cabd 3ab9 af3c dcb6 53bd
00000150: f8c3 90bc 1809 b5bd 2f56 1ebe f950 213e
00000160: e50f df3d 489f 123e 6601 0bbe d2c7 a0bd
00000170: 6956 8c3d 35c3 4ebe 6826 0dbe 2b52 0abe
00000180: af3c d93d 73ec 19be a7e4 eebd fd40 30be
00000190: d4bf ba3b a3ee 9abd b223 8d3e dcd0 323e
000001a0: 4493 0fbe 6f20 a83d 85c2 983d 88ca ea3d
000001b0: 75be 093e db25 123e 6591 7fbd 43f9 31be
000001c0: 549a c53d 7a8c 50be 0174 2b3e 3ab1 eebc
000001d0: b58a 0d3e 90b9 0bbe bef2 013e 65f5 e63d
000001e0: 2346 d73d 5cd2 82bc 40be d8bb 22a9 af3c
000001f0: 7c83 8a3e 5e28 7cbe e0f0 59be 1ffe 473e
00000200: 2405 88bd 648a ea3d d87f 013e 9931 083e
00000210: 38f3 63be a823 7fbe 2948 cb3c 8dd6 823c
00000220: e3da 213e c998 80bc ff5c 3d3e 32b8 3c3c
00000230: c499 90be 8694 bcbd 271f 463d 9242 35be
00000240: 8342 ff3d 0705 67be aeee 1c3c 9117 273c
00000250: 2b6d a93d c859 9fbd a6ba 54bc 2536 76be
00000260: c8a1 523d e1e2 62be 8c3a 71bc eccb b53d
00000270: 79a3 2f3e e10c 25be 161a 293e 75df 4c3e
00000280: 9f9c 713c ebdd 46be 48a5 30be e254 d33d
00000290: d294 163e 3ab4 11be 52ae f5bd 62ac bfbc
000002a0: 5295 6dbd 40f5 aa3d 8c65 d7bd 849e 613e
000002b0: 3487 233e c751 46be 62a4 2e3c fd59 25be
000002c0: 0d64 133e da7b 1f3e c867 693e fea4 9e3d
000002d0: 6d86 67bd 0f83 983d 3cd2 f8bd 0f38 463e
000002e0: de21 f0bd ec5c abbd 04cf 013d 3a01 bbbd
000002f0: 71bd 3f3e 542f 223e 13c0 54bd 18ef 623e
00000300: 18cd 40be 1d56 5dbe cf30 80be 36e8 1fbe
00000310: d820 ce3d 8b57 003d 5e23 ed3c 43e5 b5bd
00000320: 01e0 a13d bc16 b7bd a275 0bbe 3141 283e
00000330: 2544 7dbe f579 54be 8bfc b9bd 3327 673e
00000340: d3ef 953d 2189 933d fa83 e73d 2596 d9bd
00000350: 813e 87bd 4b11 323e 6998 2c3d f10c 013e
00000360: 637f e6bd c7eb c73b 7af7 fe3d 084a 87bd
00000370: 75af a4bc 3859 133e 4bd7 973d 726e f8bd
00000380: 7bdd 17be 0d83 2e3e 1272 17be 4af2 dabd
00000390: b764 1ebe c6d1 163e 187a febb b992 6bbd
000003a0: d742 0bbd 75de 0abe 2d9f 633d 05e0 903e
000003b0: d0e9 ed3c eb8f 743e 8c5a 8f3e 7b1e 043e
000003c0: a4cb a03d 6a49 11be 927e 8bbd 4570 053e
000003d0: b747 15be dbc2 283e b8ef 8c3e 6d08 76be
000003e0: 7ec3 1bbe d0c8 0dbe 8e40 243e 72f0 bd3d
000003f0: eb1a 48bd f6bd faba bd2a 90bd e690 773d
-0.21845242 0.012906965 0.18070468 -0.0067657596 0.2736292 -0.25958833 -9.334766e-05 -0.10857937
0.08492381 0.093073465 0.1484813 -0.122314125 0.19390723 -0.0911416 0.19680932 -0.0066701523
-0.14135817 0.23931682 -0.06511189 -0.009526831 -0.061690155 -0.15843152 -0.2907712 0.040927473
0.040387876 -0.04492746 -0.15799938 0.067882374 -0.038704615 0.05078694 -0.057172764 0.22361696
-0.14887258 0.3092181 -0.20758516 0.26573378 -0.16165811 0.15852356 -0.2633318 0.09505342
-0.00868895 0.2149084 0.16082877 0.06922338 -0.00083094876 -0.19356245 -0.17466433 0.1956962
0.1585908 -0.037450172 0.30961728 -0.2533806 0.0869641 -0.24841072 0.15522046 0.16897994
0.1439949 0.2462429 0.17118606 -0.072098754 -0.2884256 0.18457307 -0.040288012 0.13849773
-0.22787611 0.061554417 0.007892715 -0.012564166 0.21445248 -0.24744596 -0.18262687 0.22179207
-0.13331902 -0.097369574 0.104425706 -0.11667247 -0.1512988 0.0035038386 -0.2025054 0.14963804
0.025231404 -0.098998286 0.021450628 -0.05168806 -0.01767157 -0.08839625 -0.15462564 0.15753545
0.108917035 0.14318573 -0.13574752 -0.07850613 0.06852419 -0.20191653 -0.13784182 -0.13507907
0.106072776 -0.15031604 -0.11664706 -0.17212291 0.005699137 -0.075650476 0.27566296 0.17462486
-0.14021021 0.08209311 0.07458977 0.11464411 0.1345156 0.14272253 -0.06239452 -0.17380242
0.096485764 -0.20366088 0.1674347 -0.029137243 0.13822444 -0.13645005 0.12690255 0.11277274
0.105114244 -0.015969448 -0.0066144764 0.021442953 0.2705344 -0.24624774 -0.21283293 0.19530533
-0.066416055 0.11452177 0.12646425 0.1330017 -0.2226075 -0.24915946 0.024814682 0.015971446
0.15806155 -0.015697854 0.18492506 0.011518525 -0.28242314 -0.09208016 0.048369553 -0.17701176
0.12463858 -0.22560512 0.00957839 0.01019849 0.08272775 -0.07780796 -0.012983954 -0.24044092
0.051423818 -0.2215686 -0.014723431 0.08876786 0.17152204 -0.16118194 0.16513857 0.20007117
0.014746814 -0.19420592 -0.1725055 0.103189245 0.14705208 -0.14228907 -0.119961396 -0.023397628
-0.05800373 0.08347559 -0.105174154 0.22033125 0.15969545 -0.19367133 0.010659309 -0.16147609
0.14393635 0.1557459 0.22793496 0.077463135 -0.056524683 0.074468724 -0.12149474 0.19357322
-0.1172521 -0.08367333 0.031691566 -0.09131093 0.1872461 0.15838367 -0.05194099 0.2216152
-0.18828237 -0.21614881 -0.25037238 -0.15615925 0.10064858 0.031333487 0.028947528 -0.08881619
0.079040535 -0.08939883 -0.13619092 0.16431119 -0.24733026 -0.20749648 -0.09081372 0.22573547
0.073211335 0.0720389 0.113044694 -0.10624341 -0.066037185 0.17389409 0.042137537 0.12602593
-0.11254766 0.006101105 0.12449546 -0.06605917 -0.020103196 0.14389503 0.07414111 -0.12130441
-0.14830582 0.1704218 -0.14789608 -0.10690744 -0.15468107 0.1472846 -0.0077660196 -0.057512973
-0.03399929 -0.13561423 0.055571724 0.28295913 0.029042155 0.23883025 0.2799877 0.12902252
0.07851341 -0.14188161 -0.06811251 0.13031109 -0.14578138 0.16480581 0.2752664 -0.24026652
-0.15211293 -0.13846135 0.1604025 0.09274377 -0.048853796 -0.0019130099 -0.07039402 0.06044092

Block_1d_sensor_2.Scale_1.layer_1.BasicBlock_1d.conv1_1d.weight f4 [8, 1, 1, 3]
00000000: c035 293e 4186 bd3d 4b36 04bf 1c5e 01bf
00000010: 661d f93d 721c 803e 2b2d 5ebe 085d 893e
00000020: e4c0 dd3e f6c9 e5be cb5d 173f 1517 15be
00000030: 2865 653e 30c4 813e fb5a 9b3e c416 093f
00000040: 4624 d4bd 2243 cfbe 3c09 e93e c155 edbe
00000050: ebb1 c63d a0da acbe be6c f33d 32aa c0bd
0.1652441 0.092541225 -0.51645344 -0.50534225 0.121638104 0.25021702 -0.21696918 0.2682879
0.43311226 -0.44880646 0.5912749 -0.14559586 0.2240187 0.25344992 0.3034285 0.5355036
-0.10358481 -0.40480906 0.45514858 -0.46354488 0.09701904 -0.33760548 0.11885975 -0.09407462

Block_1d_sensor_2.Scale_1.layer_1.BasicBlock_1d.conv2_1d.weight f4 [8, 8, 1, 3]
00000000: ff88 fc3d 93ec 3e3e 3e41 7dbe f79d 05be
00000010: 4064 98bd 86ac 463e 1870 483e 3b50 2a3e
00000020: 1184 903d acc8 ea3c 4fb6 92be 5945 573e
00000030: c7a8 28be a0f2 a23d 1dca 21be 02e7 e43d
00000040: 34cb 223d 697a debd 3d0a a73c 1053 403e
00000050: 7e23 eb3c 342b 263e 4361 77bd 9191 c0bc
00000060: 5dc8 67bd 6212 0d3e fc3a 05be 1e8c 153e
00000070: 7479 803e cc38 ea3d d1b1 6dbd a316 3bbd
00000080: 59dc 033e b117 2dbe 7eab 483d d17f 3e3e
00000090: cc3e c2bd 6a10 cf3d 0f12 4c3e 8c39 ce3d
000000a0: 5ebf 0bbd 557b 5fbe 4b0b 903c e5fa 44be
000000b0: 0acc 64be 90b8 6c3d 1bdf 5c3e 6489 423e
000000c0: 056f f03d 53da 1ebe 02b7 2bbe 8c4b 933d
000000d0: e1ef 2b3e 63c1 97bd 36c2 b53d 0892 6a3d
000000e0: 284d 8c3e 1409 41be 1652 3b3e 57e2 96bd
000000f0: fc80 bbbb 0bec 803d 397a 25be b824 7dbd
00000100: 089d 11be 89af 9bbe ce76 38bd 28c6 68be
00000110: 32b3 febd 5c3b 8a3d 2df2 a53d c091 94bc
00000120: d94b 673d 8d58 2b3e a309 91be 9a06 1f3d
00000130: 0da7 cdbd 226f 8e3d b0c2 1c3b 134e 47be
00000140: 1334 2c3e 96a5 0d3d 759f a43d 48e6 d3bd
00000150: 5a6b dcbd 8f6d f4bd 2ddf cd3d 4144 3e3e
00000160: 20c5 36be e32e 88be 4de5 47bd 62b2 c5bd
00000170: bc45 68bc ec82 3d3d 7973 60bc be13 643c
00000180: 1d73 993d 797e 3f3e 6f20 2dbe d873 32be
00000190: 57c2 97bd fe2e 873e e48a 5ebe 99d9 f83d
000001a0: 5280 363e 2924 213e 58b3 9abe fd8b 8d3e
000001b0: ed6c 99bd 3c0e 9c3d 5018 df3c 406b 8cbe
000001c0: fd42 c83d dccc 66be 55a9 18be fdd8 293e
000001d0: 5ae4 1cbe 220f 5b3e e169 87bd 18c2 d9bd
000001e0: 30a4 43be f169 03bc 42eb ac3d 7612 02be
000001f0: a882 8c3d 63cd b7bd 1796 0bbd a375 f5bd
00000200: 1a52 3c3e e222 393e e19c 9b3e 863c c9be
00000210: 711b 3bbe ba2a 2cbe 908c db3d e46d 1f3e
00000220: 5de6 1a3e 3382 af3d 627b 943d 4a59 41bd
00000230: e800 243f edc5 3f3e 7da0 1a3e a08a 23bc
00000240: d04b 02be 2125 6cbe aa32 30bd 6ccc 273e
00000250: aa7d e8bd baff 443e 40a4 223e 70d1 3e3e
00000260: c58d 593e 369d 22bd 0c9f 5ebe 3e2b 933e
00000270: aed8 883c 31fd 18be d1b0 6b3c c38c df3c
00000280: c613 09be 03c7 d0be 9aa7 c7bb c769 8dbc
00000290: fe02 86be f3fe cdbc 3cff 07be c6eb fc3d
000002a0: 6ac6 c5bd f145 eabd 9e64 0abe 31cc 5c3e
000002b0: 2d92 763e c3fd 033e 325e 8dbb 4c44 8fbd
000002c0: 22f9 7e3d 3ccb 873c 9097 883e 128a de3e
000002d0: 942c 353e ecfb 01bd 85a4 46be dc6b 2abe
000002e0: 414d 373d 4787 143d 2f6e 10be 51d1 58be
000002f0: 6ecf ccbe 7f8f 73bc cb70 3cbc ab28 8b3d
0.123308174 0.18644933 -0.24731919 -0.1304854 -0.07440996 0.1940175 0.1957401 0.16632168
0.0705644 0.028660141 -0.28654715 0.21022548 -0.16470633 0.07956433 -0.15799756 0.11176874
0.03974457 -0.10863192 0.020390624 0.18781686 0.028703447 0.16227418 -0.06039549 -0.023506911
-0.056587566 0.13776544 -0.13010782 0.14604232 0.2509266 0.114366144 -0.058030907 -0.045675885
0.12877025 -0.16903569 0.048991673 0.18603446 -0.09484634 0.101105526 0.19928764 0.1006957
-0.03411805 -0.21824391 0.01758351 -0.19236334 -0.2234346 0.0577932 0.21569483 0.18997723
0.11739925 -0.15512972 -0.1676903 0.07192144 0.16790725 -0.074099325 0.088749334 0.057268173
0.27402616 -0.1885112 0.18293032 -0.0736739 -0.0057221632 0.062950216 -0.16159905 -0.061802596
-0.14220059 -0.3040736 -0.045035176 -0.2273184 -0.124365225 0.06749603 0.08102832 -0.018135905
0.05646882 0.16732998 -0.28327665 0.038824655 -0.10041628 0.06954791 0.0023919754 -0.19463377
0.1681674 0.034581743 0.080382265 -0.10346657 -0.10762663 -0.11934959 0.10052333 0.18580724
-0.17848635 -0.26598272 -0.048802663 -0.096531644 -0.014176782 0.046267435 -0.013699406 0.0139207225
0.07492659 0.18700589 -0.16906904 -0.17427003 -0.07410114 0.2640304 -0.2173267 0.121508785
0.17822388 0.1573645 -0.30214953 0.27645865 -0.07491479 0.076199025 0.027233273 -0.27425575
0.09778402 -0.22539085 -0.14908345 0.1658668 -0.15321484 0.21392491 -0.06611992 -0.106327236
-0.19105601 -0.008020864 0.08443309 -0.12702355 0.06860858 -0.08974721 -0.034078684 -0.11985328
0.18390694 0.18079713 0.30393127 -0.39303988 -0.18272187 -0.16813174 0.107201695 0.15569264
0.15126939 0.085697554 0.07250096 -0.047204293 0.6406388 0.18727846 0.15100284 -0.009981781
-0.12724233 -0.23061039 -0.043017067 0.16386575 -0.113520935 0.19238177 0.15882969 0.18634582
0.21245487 -0.03970071 -0.21740359 0.2874393 0.016704883 -0.14940335 0.014385418 0.0272888
-0.13386449 -0.40776834 -0.0060929777 -0.017262353 -0.26174158 -0.025145983 -0.13280958 0.12349658
-0.09656985 -0.114391215 -0.13514945 0.21562268 0.24079199 0.12889771 -0.0043142075 -0.069954485
0.06224931 0.016576402 0.26678133 0.43464714 0.17692786 -0.031734392 -0.19398697 -0.16642708
0.04475141 0.036261823 -0.14104532 -0.21173598 -0.40002006 -0.014865755 -0.011501501 0.06794866

Block_1d_sensor_2.Scale_1.layer_1.shortcut.0.weight f4 [8, 1, 1, 1]
00000000: f287 5bbf 8b4b b33e 9f99 bebe d65e 28bf
00000010: 8933 b43e 1c46 41bf ce8a 4b3e f953 423f
-0.8575431 0.35018572 -0.3722658 -0.6576971 0.35195568 -0.75497603 0.19877169 0.7590938
